runs/CelebA/model-100.pt (torch_old, 966362 bytes, 20 tensors)

encoder.conv2d_1.weight f4 [32, 3, 4, 4]
000000 3d d6 31 bf 04 4b b5 3d b3 5c 18 be 67 0e 97 bf
       -0.69467527 0.08852199 -0.14879112 -1.180127
000010 5e 62 cb be 1b 1b 0c 3f 85 88 ca 3e 08 7d 37 be
       -0.39723486 0.5472886 0.3955728 -0.1791879
000020 58 c7 05 bf 09 44 82 3e ea 84 62 3e 85 35 39 be
       -0.522573 0.25442532 0.22121015 -0.18086822
000030 89 94 8b bf 13 81 0e 3c cf b9 dd be bd cc c1 bf
       -1.0904704 0.008697766 -0.43305823 -1.5140606
000040 37 35 59 3d 88 13 77 3d 25 80 fb 3c 17 4c 7d be
       0.053029265 0.06032136 0.030700753 -0.24736057
000050 3c 4c 53 be 4f 79 d0 bb b9 9e 5e 3c 3a ed 4f 3e
       -0.2063455 -0.0063621174 0.013587647 0.20305339
000060 dd 7e 4a be 03 d3 ef 3d 50 71 68 be 69 99 be 3e
       -0.19774957 0.11710169 -0.22699475 0.37226418
000070 e9 98 89 be ce 0d b4 3e 88 59 89 be d5 01 d8 be
       -0.26874474 0.35166782 -0.2682612 -0.42188898
000080 6c 55 e6 bd 20 a7 f5 bd 3b c0 b8 be 37 bd 14 bc
       -0.11246762 -0.11994767 -0.3608416 -0.009078315
000090 5d 98 27 3e 87 82 13 3e b8 0f a3 3d 92 7d ec 3d
       0.16366716 0.14405261 0.079619825 0.11547388
0000a0 64 5e 3c 3e da 7d 74 3d b3 65 cb 3c e0 f1 b7 3e
       0.18395382 0.059690334 0.024828767 0.35926723
0000b0 8e 60 9a be 24 6f 7e 3d 67 ac e2 be 29 19 49 be
       -0.3015179 0.06211771 -0.44272158 -0.19638504
0000c0 df a4 a4 bc 61 c7 1e be 90 f2 83 bc 2b d6 f6 3d
       -0.020098148 -0.15505745 -0.016106874 0.12052568
0000d0 7c 46 04 3d e6 2d 6e 3d a3 49 4f 3d f3 f9 e0 3c
       0.03229378 0.05814924 0.050607335 0.027462935
0000e0 33 c1 f0 bd 74 55 16 bd f1 d7 62 bd aa 47 6c bd
       -0.117556 -0.03670259 -0.05538172 -0.05768553
0000f0 a4 38 2b 3d 6f ab 86 bd af 38 c3 3d 2d 1d 0c 3e
       0.041802064 -0.06575667 0.09532296 0.13683005
000100 c5 1e 80 3c a4 32 aa bc e9 0f 54 bd d3 65 b4 bd
       0.015639672 -0.0207761 -0.051772986 -0.08808484
000110 c9 27 46 bd 03 8c 9c bd ed 29 71 bd 1e 7a 8c bd
       -0.048377786 -0.076438926 -0.058877874 -0.068592295
000120 15 e4 09 bb be bd c2 bd 4d 4d 3f be 42 b4 78 3c
       -0.0021040489 -0.09508847 -0.18681832 0.015179696
000130 62 ba 94 3d 86 c3 0b bd 3d 01 ba bc 10 af 9a bd
       0.07262112 -0.034122013 -0.022705669 -0.07552922
000140 d6 af 97 3d 38 29 cf 3a e8 d4 3a be 0f 7a 39 3d
       0.07406585 0.0015805131 -0.1824528 0.04528242
000150 7a 93 e5 bd 5c 78 79 be b4 00 3c be df e3 83 be
       -0.112097695 -0.2436232 -0.18359643 -0.2575979
000160 c5 8c 1d 3a fc a2 a5 be 6c 09 b7 be 07 2d 73 be
       0.0006010051 -0.3235091 -0.35749376 -0.23747645
000170 f8 8d a1 bd 9a d9 1d 3e 92 de 51 b9 b4 fa 15 bd
       -0.078884065 0.1541504 -0.00020014707 -0.036616042
000180 b2 07 30 bd d2 f1 7d 3d 6b 3a 30 be 53 fa 95 3d
       -0.04297609 0.061998196 -0.17209785 0.07323136
000190 0b e1 8d 3d fd ee 09 bd 60 7d 5d bd 76 a9 16 be
       0.06927689 -0.033675183 -0.054074645 -0.14713082
0001a0 5b 44 de 3d c1 0c ad 3d a3 79 8e 3d 68 dc 04 3e
       0.108528815 0.08449698 0.06956794 0.12974703
0001b0 53 d4 26 be d0 70 1b 3c a7 63 75 3b 94 0f 4e 3e
       -0.16291933 0.009487346 0.003744343 0.2012313
0001c0 c7 7e 8f be 85 07 13 bd 08 cd 23 be a1 91 1d be
       -0.2802641 -0.035895843 -0.15996182 -0.15387584
0001d0 b4 ee 06 3e d9 5c 21 3e c4 61 f7 3b 94 38 34 be
       0.13176996 0.15758075 0.0075494964 -0.17599708
0001e0 d3 12 6c be 24 8f 7b 3e 72 5d c3 bc 0c c9 bb bd
       -0.23054056 0.24566323 -0.02384827 -0.09169206
0001f0 0a 3a b0 be a7 54 05 bd a4 db 86 be 14 d9 3c be
       -0.3441928 -0.032551434 -0.26339447 -0.18442184
000200 02 27 f5 be e2 8e 07 bd a4 02 33 3e 4d 59 b1 bd
       -0.47881323 -0.033095248 0.17481476 -0.08659611
000210 79 3e 8c 3d 65 d1 e9 3d c7 f8 98 3d 29 ed 73 be
       0.06847853 0.11416892 0.074693255 -0.23820938
000220 a5 41 c7 bd e5 d4 5a be 18 ff 46 3e bb 1d c8 bd
       -0.097293176 -0.21370275 0.19433248 -0.09771296
000230 c1 46 02 be ba df 7d be d3 34 f3 bd b8 47 6d bd
       -0.12722303 -0.24792376 -0.1187531 -0.057929724
000240 3e 75 93 bd a1 10 68 3d 33 38 22 bd 8b 69 a7 3d
       -0.072000965 0.056656484 -0.039604377 0.081744276
000250 24 c7 67 3d 04 39 c3 3d 51 bb 91 3d 06 3e 9e bd
       0.0565864 0.09532359 0.07115806 -0.07726674
000260 87 fd ea 3d dd b1 9b 3d d1 08 20 3d e6 4d a8 3d
       0.11474138 0.07602284 0.039070908 0.08217983
000270 4b ef cb 3d 5f 6a fc 3c e9 e6 ad bd 3a c6 10 3e
       0.09957751 0.03081244 -0.08491308 0.14138117
000280 e2 a8 0c be 65 a3 cf 3c f6 51 7f bc cb 3b 5b bd
       -0.13736299 0.025346467 -0.015583506 -0.05352382
000290 43 01 46 bd bd b3 20 be 8d 7f 2f bc 78 df 13 bd
       -0.048341047 -0.15693565 -0.010711563 -0.03610179
0002a0 e7 39 3c 3d 30 ea 22 3b a5 a8 97 bd a7 53 5c 3c
       0.045953657 0.0024858825 -0.07405213 0.013447679
0002b0 47 1f 27 3d 81 da ba bd 6d ec 51 bd f2 59 bc 3d
       0.040801313 -0.091237076 -0.051250864 0.09196843
0002c0 6b 7c c1 bd 4f 28 29 3d e8 aa 12 be ef bb 54 3d
       -0.09447559 0.041298207 -0.14323008 0.05193704
0002d0 fd 6a c2 bd 28 d8 1b be 08 41 52 bd 81 24 82 3d
       -0.09493063 -0.15219176 -0.05133155 0.06354619
0002e0 73 65 a8 bd 63 3d 80 3d 5d 74 05 be dd 21 43 3d
       -0.08222475 0.062617086 -0.1303267 0.047639716
0002f0 3f 80 83 bd c6 cd 0c be bd e6 25 be d5 a6 66 3a
       -0.064209454 -0.13750371 -0.16201301 0.00087986636
000300 96 72 6b be d0 45 3d 3e 49 fb 27 bc 82 1a 19 bf
       -0.2299293 0.18483663 -0.010252782 -0.5980607
000310 bb 62 ef bd 5a 51 2d bd 8a 92 7d 3d 32 e8 8f be
       -0.11688753 -0.04231391 0.06190733 -0.28106838
000320 51 d0 4b 3e 89 77 1c 3d d1 e6 eb bd ae bc e8 bc
       0.19903685 0.038199935 -0.11518634 -0.028410282
000330 c3 56 18 bd 71 30 b3 bd 16 40 12 3e 02 2d d8 bb
       -0.037192117 -0.08749474 0.1428226 -0.006597162
000340 5e b8 a0 be 48 54 1c 3d 3e 56 02 bd bf 0e 2f bf
       -0.3139066 0.038166314 -0.03182053 -0.68381876
000350 a7 86 02 3c 9d 9f e4 bc 9a 79 62 3e 2b 2b 87 bd
       0.007966674 -0.02790814 0.221167 -0.066000305
000360 22 7d e3 3d 3d d0 00 bd 5a 3a 4c 3e 3e a9 37 3d
       0.111078516 -0.03144859 0.19944134 0.044839136
000370 b6 ac 85 bd b4 f3 8c 3d 9d c4 08 3e 07 32 82 3e
       -0.065270826 0.0688242 0.13356252 0.25428793
000380 d7 ec c6 be 48 f6 cd bc 80 08 58 3e e2 32 99 be
       -0.3885257 -0.02514185 0.21096992 -0.29921633
000390 57 37 b8 bd 86 b0 20 be 39 35 9a 3c 30 b5 f0 3d
       -0.0899493 -0.15692338 0.018824207 0.11753309
0003a0 d4 45 0d 3e 06 28 93 3d d5 3b 27 3d 73 0a d9 bd
       0.13796169 0.07185368 0.040828545 -0.10597696
0003b0 3c 78 e0 bc b6 cb 3b 3d 7d ae 70 bc 6f 5e eb bc
       -0.027401082 0.04584857 -0.014690039 -0.028731553
0003c0 dc f0 1e 3e 8e 31 16 be eb 24 c8 bd 0a b6 af 3d
       0.15521568 -0.14667341 -0.097726665 0.08579643
0003d0 32 e0 7b 3d b4 08 c8 bd 90 6d 6b bc 21 a5 c5 3b
       0.061493106 -0.09767285 -0.014369383 0.006031648
0003e0 b9 d4 eb 3c ec 81 01 be b7 1d 90 3d a1 a4 1c 3d
       0.028787958 -0.12647218 0.07036918 0.03824294
0003f0 8a 9d b2 bd e9 57 4d be c5 c8 f1 bb 80 c7 cd bb
       -0.087214544 -0.20053066 -0.00737867 -0.006279886

encoder.conv2d_1.bias f4 [32]
000000 7d 44 e6 3c 95 a5 33 be bb 1d 58 3d 9d 75 32 bf
       0.02810883 -0.17543633 0.05276273 -0.69710714
000010 ed 2c 8f be 48 ba ea bc 34 5e 90 bd 72 b6 a2 bd
       -0.27963963 -0.028653279 -0.07049218 -0.07944955
000020 d7 a4 96 bc 6d e1 80 bc c6 04 63 be a1 8c 2b bc
       -0.018389149 -0.015732491 -0.2216979 -0.01047054
000030 ff 25 e0 bd d4 9f ce be 88 01 0f bd 06 f6 8d 3e
       -0.10944747 -0.40356314 -0.03491357 0.27726763
000040 9d b9 fc bd 75 a7 ef bc 3e f5 d4 bb 8f 19 54 bd
       -0.123400904 -0.029254654 -0.0064989617 -0.051782187
000050 1b ab 26 3d f7 2e 23 be 1a 35 89 bf 75 27 58 bd
       0.040690523 -0.15935884 -1.071933 -0.052772004
000060 86 1b b2 b9 1f 1d 16 3d 35 4b 0c bd 95 ea 72 bc
       -0.00033971312 0.036648866 -0.03425141 -0.0148264365
000070 e7 d4 1e bf e4 92 da bc 7e 60 2d bd 00 33 6a bb
       -0.62043613 -0.026681371 -0.04232835 -0.0035735965

encoder.conv2d_2.weight f4 [32, 32, 4, 4]
000000 8d b0 01 3d e2 ad bb 3b 89 60 15 3d c9 20 96 3b
       0.031662513 0.0057275156 0.036469016 0.004581545
000010 03 73 00 3d f8 f2 80 bc b9 99 ab 3c 19 61 06 bd
       0.031359684 -0.015740857 0.020947324 -0.032807443
000020 2c 55 f8 3c fd 50 92 3c ba 2b 3a bd 16 8c 38 bd
       0.03031405 0.017860884 -0.045451857 -0.04505547
000030 e7 f5 b8 3c 4d 34 4c 3c 0b 3f 2b bc 5c c1 71 bc
       0.022578193 0.012463641 -0.010452042 -0.014755573
000040 53 5a ad bc 4c f9 00 bd 0e ae 38 3c 27 f7 ea bc
       -0.021161234 -0.031487748 0.011271967 -0.028682305
000050 e2 75 01 bc 7f 21 25 3d 1e e7 a3 bc 7d 56 8b 3c
       -0.007901641 0.040315147 -0.020007666 0.017009014
000060 64 12 ec bc fc 43 a3 bc 52 87 c9 bb 39 85 d7 3c
       -0.028817363 -0.019929878 -0.0061501646 0.026308643
000070 f4 af 5b 3c 02 de 03 3d 6f b6 61 bb e3 63 a7 bc
       0.01340865 0.032194145 -0.0034441014 -0.020433372
000080 f6 ff e3 3c e2 ae 4d bd 3c c1 ad bc 2b f9 e9 bc
       0.027832013 -0.05021561 -0.021210305 -0.028561195
000090 1a b1 88 bc 86 0c 18 3c 1b aa 37 bb 13 44 72 3c
       -0.016686011 0.00928033 -0.0028024975 0.014786738
0000a0 03 72 0a 3d f9 e1 24 3d 13 8e 74 bc cf 37 82 3c
       0.033800136 0.040254567 -0.014926451 0.015895752
0000b0 b4 11 08 bc 52 11 05 3d dc e9 56 bc 61 ea 6c bc
       -0.008305002 0.03248722 -0.01311728 -0.014460177
0000c0 1b 22 1f 3d 50 5e 85 bc 82 cd c9 3b 8e dc b3 bc
       0.038850885 -0.016280323 0.0061585316 -0.021955755
0000d0 b7 16 80 3c 4a 57 f8 bc ac 11 61 3c 16 c9 05 bd
       0.015635831 -0.03031506 0.013737123 -0.032662474
0000e0 5b 70 4b bd 16 d5 36 3b 79 1c f5 bb 3b 50 9b 3c
       -0.049667697 0.0027898005 -0.007480201 0.018959155
0000f0 55 bc 55 3c 11 4f 21 3c 1b 1b 85 bc be cb fb bc
       0.01304539 0.009845511 -0.016248276 -0.0307368
000100 d2 e9 11 3d 9a aa 92 bc a2 76 8b bc fe 6a de bc
       0.03562338 -0.017903615 -0.017024342 -0.027150627
000110 37 0b 8e bc 2e b9 d1 bc 74 30 22 bd 5e 41 fa bc
       -0.017339332 -0.025600996 -0.03959699 -0.030548748
000120 d1 e5 18 bc 57 03 5f 3b da 39 c0 ba 61 63 aa 3b
       -0.009332136 0.003402909 -0.0014665679 0.005199835
000130 d6 41 61 3c 4a a8 de bc ea 78 11 bd 34 68 07 bc
       0.013748607 -0.027179856 -0.035515703 -0.00826459
000140 c3 76 0b 3d 54 b5 87 bc 00 6e 48 bb c5 86 f0 bc
       0.034048807 -0.016565956 -0.0030583143 -0.029361138
000150 9b a0 34 bd 3f 30 34 bd 97 0f a3 bb 85 7c 00 bd
       -0.044098478 -0.043991324 -0.0049762237 -0.03136875
000160 84 2a 5e 3c a3 9c cf 3c bd 85 20 bd 3c 41 4d 3c
       0.013559941 0.025343245 -0.039190043 0.01252776
000170 75 d1 c6 bb 19 4e ea bc 50 2e 2a 3c 67 9c 82 3b
       -0.0060674497 -0.028601693 0.010387018 0.00398593
000180 b5 2c 8a 3c 61 33 0f bd d6 ff c6 bc b5 fd 35 bd
       0.016867021 -0.034961108 -0.024291914 -0.044431407
000190 f9 24 6b bd 47 b5 1b bd ab 83 bf 3c 74 c5 d6 3c
       -0.057408307 -0.038014676 0.023378214 0.0262172
0001a0 68 34 d0 bc e4 d2 90 bc 01 c2 ca bc c5 76 79 bd
       -0.025415614 -0.017678685 -0.024750711 -0.060904283
0001b0 30 b4 c1 bc 38 05 cb bc 9b 61 22 bd 16 7f 57 bd
       -0.02364549 -0.024782762 -0.039643865 -0.052611433
0001c0 4b 07 de bc bc c1 36 3c 51 61 9e bc 41 8c b1 3b
       -0.027103087 0.011154588 -0.019333513 0.005418331
0001d0 b9 d1 36 bb 58 eb 9e bc 32 b6 81 3b 68 6f d3 3c
       -0.0027896 -0.01939933 0.003958487 0.025809959
0001e0 1f 3b 2b bc f0 32 0f bd 9b b4 5c bc 65 fc 89 bc
       -0.010451107 -0.034960687 -0.013470794 -0.016843984
0001f0 14 40 e7 ba b1 ff 3f bd ea c9 81 3c 1e 55 76 bb
       -0.0017642998 -0.046874706 0.01584335 -0.0037587355
000200 da d2 11 bd 5f be 39 bd 83 47 be bc 7d 62 2d bc
       -0.035601474 -0.045347568 -0.023227459 -0.0105825635
000210 6c 75 2f 3c 52 a5 89 bc 5f c8 94 bb ba 18 0a 3d
       0.010709148 -0.016802464 -0.0045404877 0.033714987
000220 50 02 90 3a e7 d8 df 3a c6 51 1a 3c f1 80 1c bd
       0.0010987017 0.0017078192 0.00941891 -0.038208906
000230 dd 99 55 bd 9b 3f be bb 9c d4 06 3d 16 2e 9c 3c
       -0.05214869 -0.005805922 0.032917604 0.019064944
000240 ea 9b 29 3c 56 d0 0e 3d 86 d2 24 3c 2c 46 a4 3c
       0.010352114 0.034866653 0.010059958 0.020052992
000250 ad 83 04 3d 6f 5d 56 3c cb 15 0f bc b6 37 e0 ba
       0.03235214 0.0130838 -0.008733223 -0.0017106447
000260 6b 6a 38 bd d9 86 30 bd 8d 83 02 bd b2 67 95 bc
       -0.045023363 -0.04309735 -0.031863738 -0.018237922
000270 f3 82 58 bc 86 a2 39 bc f9 c8 6b 3c 1e c1 80 bb
       -0.0132148145 -0.0113302525 0.014391177 -0.0039292714
000280 33 dd 77 bb aa 8d dc bc 58 f3 bc bb ce c4 fb bc
       -0.0037821054 -0.02692302 -0.0057663135 -0.030733492
000290 ad 9a 83 bb 17 32 67 3c 4c 16 91 bc 88 77 0a 3d
       -0.0040162415 0.014111063 -0.017710827 0.0338054
0002a0 8d e1 62 bc 18 f7 e0 3b 83 89 fe 3c 21 60 01 bc
       -0.013847721 0.0068653934 0.03107143 -0.007896454
0002b0 01 cf 28 bc 80 a6 e2 3c a6 59 03 3d 12 bd 16 3d
       -0.01030326 0.027667284 0.032067917 0.036801405
0002c0 a3 e9 8f 3c c3 f2 fb 3c 4a 29 16 3d 1c ba 34 bc
       0.017567461 0.030755406 0.03666047 -0.0110307
0002d0 2c 1f 10 bc 72 c0 53 3c c5 87 da 3b 96 c3 01 bd
       -0.008796494 0.0129243005 0.006669017 -0.031680666
0002e0 4b 93 9a 3b 83 c5 ae bc f1 74 fd 3c 75 88 88 bc
       0.0047172657 -0.021334415 0.030939551 -0.01666663
0002f0 fd 93 5b bc 47 9b 33 bd b8 2f 88 3c 33 08 ff 3c
       -0.013401982 -0.043849256 0.016624317 0.03113184
000300 69 97 23 3d 85 dc 84 3c 9e 25 34 bd d9 13 ca bc
       0.039939318 0.016218433 -0.043981187 -0.024667667
000310 fe 3f 12 bd d2 28 af bc a6 7c 18 bd ae 4d d3 3c
       -0.03570556 -0.02138177 -0.03722825 0.025793876
000320 35 bd 4c bc 01 66 13 3d d5 03 ba 3c 85 47 46 bd
       -0.012496282 0.03598595 0.022706905 -0.04840805
000330 64 91 d0 3c 60 74 02 3d 8e d6 3a bd cc e2 03 bd
       0.025459953 0.031849265 -0.04561477 -0.032198712
000340 5e 79 a7 3b 4e 74 dd bc ab 04 e2 3c 3e 6f b6 3a
       0.0051109036 -0.027032997 0.027590116 0.0013918651
000350 9d b4 b3 3c a2 14 a1 bc 5b 9a f7 3b 26 ee 4a bc
       0.021936709 -0.019663159 0.0075562424 -0.012385881
000360 8a 47 a4 bc c4 4d ef bc ec 18 2a 3c 9e 51 37 bc
       -0.020053644 -0.029211886 0.010381918 -0.011188893
000370 50 90 0e bd e6 af 65 bc d4 09 45 bd fa 37 6a 3c
       -0.034805596 -0.014018988 -0.048105076 0.014295572
000380 dc 59 86 3c b7 6e e1 bb fc 68 b2 bc 1c 9c 83 3c
       0.01640027 -0.0068796533 -0.021778576 0.01606565
000390 42 bc 58 bd e3 20 91 3c 86 5a 0b bd 33 33 65 bb
       -0.05291391 0.017715877 -0.034021877 -0.0034973144
0003a0 6d ed f3 3a ad f9 0a bc 6f 0b e7 bc b7 4e d6 bc
       0.0018610187 -0.008482379 -0.028203694 -0.026160581
0003b0 71 15 6c bc f9 27 e9 bc ce 62 55 bb d4 6b 2d bd
       -0.014409409 -0.028461443 -0.0032560113 -0.04233916
0003c0 15 04 e9 3c a7 63 1d bd d3 4a e8 3b 46 65 8e bc
       0.02844433 -0.038425114 0.007088998 -0.017382275
0003d0 29 85 02 bd da 51 4c bc 17 ce f0 bc 7a 05 30 bd
       -0.031865273 -0.012470687 -0.029395146 -0.042973973
0003e0 38 38 f4 3b d4 f1 1c bd ea 6b a1 bc 0f 47 75 3c
       0.007452991 -0.038316563 -0.019704778 0.014970555
0003f0 c4 e7 12 bd ab 56 9b bc d6 e8 04 bd ac 07 9e 3c
       -0.03586556 -0.018962225 -0.032448612 0.019290768

encoder.conv2d_2.bias f4 [32]
000000 3e c3 00 bd 92 60 67 3d 46 5f 91 be 4f 81 42 bd
       -0.031436197 0.05648858 -0.28393 -0.0474866
000010 a6 e7 12 bc db 16 3a bd fe 4c b6 be c9 cf 7d bd
       -0.008966362 -0.045431953 -0.35605615 -0.061965737
000020 b1 89 7a 3d 70 ae 1e bd a8 1f 15 bd 7f ae e4 bd
       0.06116647 -0.038740575 -0.036407143 -0.11166095
000030 4b 23 cc 3c 30 d6 97 bb 9a 2f c1 bc 55 f0 09 be
       0.024919173 -0.0046336874 -0.023582269 -0.13470586
000040 d9 45 0c 3c cd 35 08 be 5b 27 19 bd 40 55 74 bf
       0.008561575 -0.13301773 -0.037391048 -0.9544258
000050 4d 7f 9a b9 3e 6e 79 bd 11 d8 00 bc ef 25 80 bd
       -0.00029468015 -0.06089615 -0.007864014 -0.06257235
000060 bf d3 4d bd 75 c2 89 bd c7 dc 18 bd ca a2 01 be
       -0.050250765 -0.06726543 -0.037319925 -0.12659755
000070 da 62 9a bd fe 25 7c bd 33 cc 50 bd 41 e8 02 be
       -0.07538386 -0.06155967 -0.05097599 -0.1278391

encoder.conv2d_3.weight f4 [64, 32, 4, 4]
000000 0e 7c 10 bc f4 7c 70 3c 80 3f 83 3b da 7e bd bc
       -0.008818639 0.014678229 0.0040053725 -0.023131777
000010 5e 5c a7 3c f7 dc b8 bc 13 4c f3 3c c3 10 a2 bc
       0.020429786 -0.022566302 0.029699361 -0.019783383
000020 ae 93 c5 bc a1 96 ab 3c 96 74 31 3c 75 24 ae 3b
       -0.02411827 0.020945849 0.010831019 0.0053144046
000030 38 ba f5 bb 4b 7a d4 bc 79 3e 0a bd c5 7c 0c 3d
       -0.0074990056 -0.02593722 -0.033750985 0.034298677
000040 98 af f9 bc 37 c5 b6 3c 87 12 6b 3e 85 46 91 3e
       -0.030479237 0.022310836 0.22956286 0.28374115
000050 16 55 1a 3e 45 de d4 3e 4b 20 77 3e 54 6c f3 bb
       0.1507152 0.41575828 0.24133413 -0.007428685
000060 2a ca 08 bf 4d bc 3d 3e 2b 8c a3 3d 18 21 a5 bd
       -0.5343348 0.18528862 0.07985719 -0.08062953
000070 7d 00 db be ae 89 48 be be fe 49 3d cc c1 5d 3d
       -0.4277381 -0.1958377 0.049315207 0.054139897
000080 87 6c c0 3d 63 cd 08 bc 5a f4 61 bd 30 8a 38 3e
       0.093957 -0.008349749 -0.055164672 0.18021464
000090 7c 17 86 bd 1d 77 21 3d a8 ae 39 b9 09 b7 b1 be
       -0.06547448 0.039420236 -0.0001770804 -0.34709957
0000a0 3c cd 90 be d8 73 b9 bd 05 9b b3 3c dd df 15 3e
       -0.2828158 -0.090552986 0.021924505 0.14636178
0000b0 51 38 fb 3d eb ed 57 3e a5 0a f0 3c 49 8f 90 3e
       0.12266601 0.21086852 0.02930195 0.28234318
0000c0 72 86 ad 3e dc 7d e4 3e 88 cd 97 3e d7 c1 0e 3e
       0.33891636 0.44627273 0.29648995 0.13941132
0000d0 78 82 fe bc da cf cb 3b aa 51 72 bd ea 04 0b be
       -0.031068072 0.006219846 -0.059159912 -0.13576093
0000e0 f6 99 e9 3d 95 37 04 be ab ee f0 3d 0c 54 86 3d
       0.11406319 -0.12911828 0.11764272 0.065589994
0000f0 ff f2 74 3e bf 67 48 3e 27 56 a9 3d 20 c2 66 3e
       0.2392082 0.19570826 0.082683854 0.2253499
000100 72 35 01 3d 4d e7 68 be 14 a7 33 be 69 90 80 3d
       0.03154511 -0.22744484 -0.17544204 0.06277544
000110 b7 8f cf be 3f b0 12 3e a0 bd 81 3e 52 66 df 3c
       -0.40539333 0.14325045 0.25339985 0.02727047
000120 ec d7 81 3d 05 54 45 be ba 59 9d be 1f ef 9d bd
       0.06340012 -0.19270332 -0.30732518 -0.07711624
000130 60 1f 40 be 28 f8 d9 3d 39 3c cd 3d 5a aa a6 3d
       -0.18761969 0.10643035 0.10021252 0.08137961
000140 91 91 47 be 07 80 d9 3e 21 11 9c 3e b2 0c 87 3e
       -0.19489123 0.4248049 0.30481818 0.26376873
000150 d3 03 60 3e 8d a5 2a 3d 38 9e 5d 3d ff 7a 9b 3d
       0.21876459 0.041661788 0.054105967 0.07591819
000160 ea d4 0f be 44 02 02 3e f3 42 b5 bc 83 cb 1f bd
       -0.14046064 0.12696177 -0.02212665 -0.039012443
000170 55 e5 36 be e5 36 f8 3e 9e db 51 3e 14 b9 e7 3e
       -0.1786092 0.4847938 0.20493934 0.4525839
000180 36 67 08 be b5 07 f3 3e 1a 1a dd 3c a1 ce a3 bd
       -0.13320622 0.47466817 0.026989985 -0.07998396
000190 89 c0 1b bf a7 6d 0f 3f 9e f6 07 be 80 59 05 be
       -0.6084066 0.5602669 -0.1327767 -0.13022423
0001a0 09 0e 0c bf c6 e9 13 3f ff de 18 3f 31 1e 99 3e
       -0.54708916 0.57778585 0.59715265 0.29905847
0001b0 d7 80 7a bf 06 8e 85 bf ab 9e d4 3c b8 73 b7 3e
       -0.97852844 -1.0433967 0.025954565 0.35830474
0001c0 15 85 13 3d 3e 51 a7 bb 32 7f c0 3c 18 61 b4 bc
       0.03601559 -0.0051061204 0.023498151 -0.022018954
0001d0 1e 28 f0 3c 83 1d 0b bd ce 98 2e 3c b9 04 9f bc
       0.029316004 -0.03396369 0.010656549 -0.019411432
0001e0 b1 e9 98 3c 2c 44 4d 3a 5f 55 e2 3c af ff ca bb
       0.01866612 0.0007830288 0.027628599 -0.0061950306
0001f0 fa 20 2e bd 69 53 b0 bc 13 71 17 bc ca 95 d6 bc
       -0.042511918 -0.021524148 -0.009243268 -0.026194472
000200 fd 94 63 be 48 81 02 3f 58 8b fb be a3 3d 9f 3e
       -0.22224803 0.5097852 -0.49129748 0.31101713
000210 96 38 01 bf c3 e6 45 be 38 80 81 be 0b dd a3 3e
       -0.5047697 -0.1932631 -0.25293136 0.3200458
000220 14 b4 ce 3d 0d a4 c5 bd bc cf 10 bd 50 f2 77 3e
       0.10092941 -0.09650431 -0.03535436 0.24213529
000230 58 39 d0 bd 2f 41 9b 3e 95 08 00 be 09 40 a8 3d
       -0.101671875 0.3032317 -0.12503274 0.08215339
000240 23 b0 f4 bc 9a 61 ea 3c e1 99 2d 3d cc c2 08 bc
       -0.029869145 0.028610993 0.04238308 -0.008347224
000250 fd 21 2c bd 49 fa 82 bc 52 5d b3 3c b4 a7 08 bd
       -0.0420246 -0.015988486 0.021895085 -0.03336306
000260 f2 03 05 bd 30 a8 09 bc 4f cc 04 3d a8 fb e0 3b
       -0.032474466 -0.008401915 0.032421406 0.0068659373
000270 12 52 bf bc de 25 b2 3c 95 73 0e 3d 60 89 da 3b
       -0.023354564 0.021746572 0.034778196 0.0066692084
000280 4e 5f 1a 3c 23 bf bd 3b d5 c0 c0 bc 7d 92 03 bd
       0.0094221365 0.0057906075 -0.02352945 -0.032122124
000290 e4 41 a1 3c 7f d9 ea 3c da ac 15 3d 42 c0 11 bd
       0.01968474 0.028668163 0.036541797 -0.035583742
0002a0 5b 44 9c bc 7b 7b 25 bd 47 cf ba bc 4a 53 d6 3c
       -0.019075563 -0.040400963 -0.022803916 0.026162762
0002b0 bb 37 f4 b9 9d b7 d6 bc 55 97 2b 3d 61 58 53 3c
       -0.0004658083 -0.0262106 0.04189237 0.012899489
0002c0 5e d8 0f 3d bc b9 9c be 68 6d 9b be 35 87 62 be
       0.035118453 -0.30610454 -0.30356908 -0.2212189
0002d0 0c dd 08 3e dd 3e 13 be ab 52 4e 3e e1 b3 d6 3e
       0.13365573 -0.14379449 0.20148723 0.41934112
0002e0 26 91 ae 3d 09 20 1c bd 86 17 2a 3e 59 90 21 3e
       0.085237786 -0.03811649 0.16610536 0.1577772
0002f0 1a 05 8b bd 5d c8 bd bd 8c b4 65 3e 70 2c da 3d
       -0.067880824 -0.09266732 0.22432154 0.10653007
000300 7c 23 9b bf 84 8c 3a 3e b8 4c 07 3e 91 cd 33 3d
       -1.2120204 0.18217665 0.1321286 0.043897215
000310 1a b8 b2 be 8a 61 1a bf d9 71 de 3e 3e 20 1d 3d
       -0.34906083 -0.6030508 0.43446234 0.038360827
000320 ae 1e 39 3e 70 50 69 bf 96 65 d6 3d 18 5c f8 3e
       0.1807811 -0.9113836 0.10468595 0.48507762
000330 5c 53 76 bf ff ab 94 3a 55 43 e7 3d 13 c0 ac 3e
       -0.96220946 0.0011342763 0.112921394 0.3374029
000340 14 ee 2a bc 14 e2 2d 3c 34 8d 2e 3d c8 5a 6d 3d
       -0.010432739 0.010612983 0.04261513 0.057947904
000350 b5 5a c4 3c ff ad 3d 3d 50 b1 ca 3c f4 07 4c 3c
       0.023969034 0.046308514 0.024742752 0.012453068
000360 b3 dc c8 bc 5c 19 02 3d 03 3a 98 bc 05 74 4f bc
       -0.0245193 0.031762466 -0.01858235 -0.012661939
000370 58 55 56 3c 2a d3 27 bc 86 c2 ab 3c ac b9 71 3d
       0.013081871 -0.0102432165 0.02096678 0.05901496
000380 7d d6 0a 3d 98 ff b9 3b 2a 3d aa 3c 8b 02 2f 3c
       0.03389596 0.005676221 0.020781118 0.010681759
000390 09 e7 28 3c b7 0f d5 bb 6d cb 04 bd 6e 39 c8 b9
       0.010308989 -0.0065021175 -0.032420564 -0.0003818976
0003a0 c7 d8 2c bd 92 59 38 3d 63 b3 2b 3d 0f 19 ed b7
       -0.042198922 0.045007296 0.041919123 -2.826427e-05
0003b0 71 0f 90 bc c0 62 5d bc ab f2 dd 3c 37 97 81 bd
       -0.017585488 -0.013512313 0.027093252 -0.0632767
0003c0 7b 3c 00 3d 8d cd 86 be cb 3e dd 3d fb dd a8 3e
       0.03130768 -0.26328698 0.108029924 0.32981858
0003d0 bd 46 6f 3e c9 ed 8a ba 41 34 a6 be 4b 25 51 3c
       0.23366828 -0.001059943 -0.32461742 0.012765239
0003e0 8c 21 00 bf 0f ac a2 3e 5f fd 13 bf f6 ca 44 3e
       -0.5005119 0.31771895 -0.5780849 0.19218048
0003f0 a9 cd 88 bd 22 b8 9a bf f6 53 3f be 58 e8 3a 3f
       -0.066798516 -1.2087443 -0.18684372 0.7301078

encoder.conv2d_3.bias f4 [64]
000000 13 dd d6 be 2f 72 0c bd 7d f4 53 bd 5e b3 97 bd
       -0.4196554 -0.03428858 -0.051746834 -0.074072585
000010 05 be 32 3d c7 b7 84 bd 95 f4 84 3b 68 2d 61 be
       0.043638248 -0.06480365 0.0040574768 -0.21989977
000020 84 17 98 bc 0d f4 d7 bd 9a cf 2d bd 2e bf b7 bc
       -0.0185659 -0.10544596 -0.042434312 -0.022430029
000030 6f 5b 7e bc b9 eb bf bc fb 7c b6 bc da b4 2d be
       -0.015524729 -0.023427831 -0.022276392 -0.1696352
000040 e2 b6 ce be 4d 8b 82 bd af 1a 26 bd 54 cf d4 bd
       -0.40373904 -0.06374226 -0.04055279 -0.10391107
000050 46 e7 bc bc c9 35 d3 bc 11 1f 17 bd b6 81 96 bc
       -0.023059499 -0.025782483 -0.03689486 -0.018372398
000060 36 3f 08 bd 33 c0 75 bc 13 7d 78 3c f4 a4 8b 3c
       -0.033263408 -0.014999437 0.015166539 0.01704643
000070 d1 a4 3f be 63 68 b8 3d a3 0b 6a bc 2f bc c1 bc
       -0.18715216 0.09004285 -0.014285001 -0.023649303
000080 ba 13 5d 3c 38 de 67 bd 12 36 bb bc a5 62 9c 3d
       0.013493473 -0.05660841 -0.022852931 0.076360025
000090 b2 4c d6 bc fe 65 c2 3c 8c 73 f5 3c 5d 8d 2c be
       -0.026159618 0.023730274 0.029962324 -0.16850801
0000a0 d2 a5 75 bd ea 63 7a bd 5a 3b 23 bd 07 52 7e bc
       -0.05997259 -0.06113044 -0.039851524 -0.0155224865
0000b0 b8 8a 49 3c 44 3d 91 bc 36 55 2e be a1 7a a7 bc
       0.0123011395 -0.017729409 -0.17024693 -0.020444216
0000c0 71 6e 0e bd 97 da 91 bd ce 51 09 be b6 f9 54 bd
       -0.034773294 -0.07121771 -0.13410112 -0.051995955
0000d0 bd 18 3c bd 53 04 68 bc 64 67 7d be 5c 2b a5 3d
       -0.04592203 -0.014161187 -0.24746472 0.08064911
0000e0 e1 58 17 3d 44 b7 95 bc 6f d6 a2 3d a8 55 74 bd
       0.036949996 -0.018275864 0.07951056 -0.059652
0000f0 98 14 c1 3d 6d ba 88 3d 06 5d 06 be ec 36 a7 bb
       0.09427756 0.06676183 -0.13121423 -0.0051029827

encoder.conv2d_4.weight f4 [64, 64, 4, 4]
000000 23 87 cf 3e 64 2a 10 3e 96 4d a6 3e 17 06 30 be
       0.4053279 0.1407867 0.32481068 -0.17189823
000010 af 34 8f bd 4c 43 0c bf 66 39 09 bf e5 de fb be
       -0.069924705 -0.54790187 -0.5360321 -0.49193493
000020 34 81 10 bd e5 9d 31 3e 6c c9 12 3e 3c d1 e2 3d
       -0.035279468 0.17345388 0.14334649 0.110750645
000030 ba bd b9 3e 1a 66 57 3e 46 77 4a 3f 68 12 86 3e
       0.36277562 0.21035042 0.79088247 0.26185918
000040 f8 65 e6 3b 20 7a bc bb fa cd 89 bc ae f1 d1 bc
       0.0070311986 -0.005751863 -0.01682185 -0.025627937
000050 4a a7 f3 3c f9 17 bb bc 8c d4 07 bd 70 3a 3f 3c
       0.029742856 -0.02283858 -0.033161685 0.011671647
000060 bf 60 ce bc 8a 98 0b 3d f4 be fe 3c 9e 30 a2 3c
       -0.025192617 0.03408102 0.031096913 0.019798573
000070 a0 ac 50 3c f4 38 de bc bc ae ca 3c 34 3a 6a 3c
       0.0127364695 -0.027126767 0.024741523 0.014296103
000080 9d 91 80 3e 02 72 24 3e 0a d8 d1 3d 93 18 1a 3e
       0.25111094 0.16059116 0.10246284 0.15048437
000090 4e 44 23 be 0b 9e f8 3e f6 2b 75 3e 7d 91 88 3c
       -0.15944025 0.48558077 0.23942551 0.016670937
0000a0 2d b0 77 3b 64 f7 1d be 7b 6a d1 3d fd 7b ae 3e
       0.0037794218 -0.15426403 0.10225388 0.3407897
0000b0 ba 72 bd be 5b 50 80 be 49 bc b6 3d 20 8c 8c be
       -0.37001592 -0.25061306 0.08922631 -0.27450657
0000c0 5a 0d 9d bd a4 e6 01 bd 60 f0 c0 be 56 4f 26 3d
       -0.07668562 -0.031714097 -0.37683392 0.040603004
0000d0 73 76 ac 3e 14 81 84 3e 3f 52 1c 3b c2 81 df 3e
       0.3368412 0.2587973 0.0023852733 0.43653685
0000e0 71 d5 a0 bd 7f 2b eb bc 73 b9 ec bd 7c e5 32 be
       -0.07853211 -0.028707264 -0.11558809 -0.17470354
0000f0 14 e2 fa be 91 87 1f 3d f5 49 32 be 2c 45 87 3c
       -0.4900061 0.038947646 -0.17411025 0.016512476
000100 64 59 3e be a1 1c 09 bb 50 54 a0 be 80 ac fa 3d
       -0.18588787 -0.0020921605 -0.31314325 0.12239933
000110 71 70 91 3d 08 4e 0a be a8 0f a6 be 1e 9e 9b be
       0.071015246 -0.13506329 -0.3243382 -0.3039407
000120 05 3b ae 3e b2 33 8d be 8a f7 c2 3c 33 92 33 be
       0.34029403 -0.27578503 0.023799676 -0.1753624
000130 1e dd 85 3e 77 5f 87 bd b5 b6 0a be 1b 5b c5 3d
       0.26145262 -0.06610005 -0.1354626 0.096365176
000140 02 6c 8c 3e f6 41 4a 3e ed 11 a1 3d 5f 9c 06 3f
       0.27426153 0.19751725 0.07864747 0.52582353
000150 e6 a7 33 3e a0 ed 41 bb 51 5b 60 3e e8 48 58 be
       0.17544517 -0.0029591098 0.21909834 -0.21121562
000160 f0 0c 1a 3f d1 36 48 3c c4 fa 19 3e 3d 2f 4b 3e
       0.6017599 0.0122201005 0.15037066 0.19842239
000170 aa 9b 49 bf 25 b3 2c bf 4e 3c c0 3d 74 1c 69 3d
       -0.7875315 -0.6746085 0.09386502 0.0569119
000180 91 4d 8a 3e f9 49 53 3d ad 10 2b 3b 1b dd a2 be
       0.27012303 0.051584218 0.002610247 -0.31809315
000190 df 8a f5 3c a0 7f df bc a7 51 a3 bb 26 06 9e 3d
       0.029973445 -0.027282536 -0.004984099 0.077160165
0001a0 43 68 a5 3b 47 3f 2d be d5 fa 2a bd b8 45 a9 bd
       0.0050478294 -0.1691867 -0.04174312 -0.08265251
0001b0 ee 41 22 bc 82 65 69 be ff 25 27 3c f4 94 e0 3d
       -0.009903414 -0.22792628 0.01020193 0.109659106
0001c0 de 75 b1 bd 61 0b 7e 3d 21 20 02 bc 1c 7a 61 be
       -0.086650595 0.06202257 -0.00794223 -0.22019237
0001d0 18 27 1f bd b8 6d a9 3e 11 34 96 be b2 2b d0 be
       -0.038855642 0.3309152 -0.293366 -0.40658337
0001e0 86 67 24 3d 21 ca 14 be d7 81 74 be de de 9c 3d
       0.04013779 -0.14530231 -0.23877655 0.07659696
0001f0 2a 9e 12 bf 08 c5 99 3d 99 bc a0 3d 4d 58 22 bd
       -0.5727259 0.07508284 0.07848472 -0.03963499
000200 60 eb c1 be a4 d6 a3 3e 2e fb 09 3d 71 30 57 bf
       -0.3787489 0.31999695 0.03368681 -0.8405829
000210 7a 52 6c 3e 23 28 ed 3c 6c 54 51 be 46 73 9d be
       0.23078337 0.028949803 -0.2044236 -0.3075201
000220 c5 a0 16 3e 88 b4 0e 3e 6c d1 88 3e f8 4c 42 3d
       0.14709766 0.13936055 0.26722276 0.047436684
000230 65 55 8d 3e ba f3 e5 3b 45 56 e3 3e a6 d0 11 bd
       0.27604213 0.00701758 0.44401756 -0.035599373
000240 07 a2 19 3e d1 c2 10 be 45 7b 11 3c 3a 0b a9 3e
       0.15003215 -0.14136817 0.008879487 0.33016378
000250 1f 9d b3 3e cd 42 9e 3d 86 f0 80 bd c0 0b be bc
       0.3508081 0.07727585 -0.06295876 -0.023198962
000260 14 32 2a 3d 87 e7 ec be 6f 18 e7 3d de be 11 3d
       0.041551664 -0.4627039 0.11283957 0.035582416
000270 b6 63 cf 3e 69 3c 21 bd 40 66 87 3e 5c 72 ee 3d
       0.4050576 -0.039364252 0.26445198 0.11642906
000280 c3 05 3f 3e 59 d9 ce be 4f 69 04 bf 91 6c ef be
       0.18654542 -0.40400198 -0.5172319 -0.46762517
000290 4c c4 cf bd 2d 12 a3 bd 97 33 99 3e 29 71 f1 bd
       -0.101448625 -0.07962451 0.29922172 -0.11789162
0002a0 0b 4d cc 3e 5a af e9 3d e1 87 c0 bc b5 96 ea bc
       0.3990253 0.11410399 -0.023502292 -0.028636316
0002b0 8f b8 32 bd 3f 42 57 bc 95 54 9b bd 6d cb fc 3d
       -0.04363304 -0.013138353 -0.07584492 0.12343488
0002c0 74 be 83 be 06 fc 2d bd c0 c4 b0 be 81 a8 59 bd
       -0.25731242 -0.042476676 -0.34525108 -0.053139213
0002d0 ca f6 e1 3d 62 d4 31 3e 8d ca 7e 3d c5 3c d8 be
       0.110333994 0.17366174 0.062204886 -0.42233863
0002e0 58 30 1a be 6c 05 ff bd 8c 89 04 3e 87 70 e3 be
       -0.15057504 -0.12452206 0.12943095 -0.4442179
0002f0 b3 fe 83 bb f4 1a 58 3d 37 04 9d be 34 0a 1e bf
       -0.0040281652 0.05276008 -0.30667278 -0.6173432
000300 26 2f 6d 3b 6d 1c 95 bc d3 3c 06 bd 83 d8 bf bc
       0.0036191433 -0.018202031 -0.03277285 -0.02341867
000310 d0 86 8e bc 46 f1 6c 3c 8b 4a ab bc 57 a1 69 3c
       -0.017398268 0.014461821 -0.020909568 0.014259658
000320 72 5c 06 bc c1 8b de 3c 92 f6 79 3c b9 f1 b3 bc
       -0.008200752 0.02716625 0.015256541 -0.021965848
000330 0f d3 62 bc 97 02 10 3c 3e 50 c9 3a f3 33 8a 3a
       -0.013844266 0.00878968 0.0015358997 0.0010544047
000340 bf 46 81 bc 6b 57 b3 bc b9 2f ec bc b0 f5 6b bc
       -0.015780805 -0.02189227 -0.02883135 -0.014401838
000350 5e 9b de 3c 6d 5c 8a 3c b5 37 a8 3c 77 c7 cf bc
       0.027173694 0.016889775 0.020534376 -0.025363667
000360 92 c7 54 3c b0 9c b5 3c 0b 14 65 3c 1c 5f 3e bb
       0.012987034 0.022169441 0.013981829 -0.0029048389
000370 8c 42 b4 bc 3b 2d 9f bc 4d bd 67 bc 2f eb d7 3c
       -0.022004388 -0.019430747 -0.014144254 0.026357261
000380 77 4e ad bc 9b 41 cc ba b9 67 80 bc c4 a0 96 3c
       -0.021155579 -0.0015583517 -0.015674459 0.018387206
000390 94 cd cf 3c 94 fd 33 bc 36 45 ef b9 c0 78 8b 3c
       0.025366582 -0.010985751 -0.00045637198 0.017025352
0003a0 d0 e5 c9 3b 54 c8 ad 3c ad e8 ab 3c e7 3b da b9
       0.006161429 0.021213688 0.020984972 -0.0004162483
0003b0 e4 27 08 bc d8 50 99 3b 40 38 53 bb 64 3e 2e bc
       -0.008310292 0.004678827 -0.0032229573 -0.010634992
0003c0 cc 02 a8 bc b9 a9 91 3e 23 46 9c bc e6 fd c6 bf
       -0.020509146 0.284498 -0.019076413 -1.5546234
0003d0 e1 8f da bc 34 c6 62 bc 53 30 e0 bd 4a 2e a9 bb
       -0.026679935 -0.013841201 -0.10946717 -0.005162989
0003e0 43 87 96 3e 73 1a 8d 3e cc 79 f3 3e c1 50 c3 3c
       0.29400072 0.27559242 0.4755386 0.023842217
0003f0 6d b4 ff be e6 c7 aa be c9 f8 e0 be e2 63 05 bf
       -0.4994234 -0.33355635 -0.43939808 -0.52105534

encoder.conv2d_4.bias f4 [64]
000000 35 95 a8 bd da 53 65 3e 6f b8 25 3e 4f bc 2e bd
       -0.08231584 0.22395268 0.16183637 -0.042660054
000010 26 41 45 bd 47 0d da bc 3c 54 0d bf cc 88 4b 3e
       -0.048157834 -0.02661766 -0.55206656 0.19876403
000020 88 71 ca ba c2 e3 e0 bc d3 cc 7c 3e cf eb cf 39
       -0.0015445212 -0.027452353 0.24687509 0.00039657808
000030 fc d5 0e 3e 14 22 26 bd c3 1a 4f 3e 11 07 b5 bc
       0.13948816 -0.040559843 0.20225053 -0.022098096
000040 06 35 92 ba 35 0a 39 bd 31 bf 48 3e 0c 0d 0c bd
       -0.0011154718 -0.04517575 0.19604184 -0.03419213
000050 59 09 2c bc a1 b0 0e bd 40 7e 21 be 6d 9d 49 3c
       -0.0105002755 -0.034836415 -0.15770817 0.0123056
000060 ab c4 24 3c 11 57 b1 bc d2 c5 a9 3e 55 28 fc 3d
       0.010056655 -0.021647962 0.33158737 0.1231238
000070 ff 78 32 3e 1c 79 e9 bd c3 a7 ad bd 7e 95 27 bd
       0.17428969 -0.11400053 -0.08479264 -0.04091405
000080 ae 7c e4 bc 90 25 3e 3e 06 a8 0c 3d 13 72 c2 39
       -0.027891483 0.18569016 0.034339927 0.00037087555
000090 f9 e9 8a 3e cf 9e 18 bf 8c 0b 22 bd 17 17 b2 3e
       0.27131632 -0.5961732 -0.039561793 0.3478324
0000a0 b0 c9 6f 3d ca 8d 11 bd 52 8b 7f be 9b 01 3f bd
       0.058541954 -0.03553561 -0.2495549 -0.04663239
0000b0 b0 c2 8b ba 44 29 22 bd 8f 70 58 be 0a cc bb ba
       -0.001066288 -0.039590135 -0.21136688 -0.0014327776
0000c0 64 dc 47 be 57 7b 2f 3f 0d 36 55 3e 89 43 b7 bc
       -0.19517666 0.68547577 0.208214 -0.02237107
0000d0 d6 78 24 3f 3a 0a 17 bd 72 4e d5 bc 2f a0 04 3e
       0.6424688 -0.036874987 -0.026038382 0.1295173
0000e0 cb 88 d5 3b 54 61 11 3c 01 b5 3c 3d 16 fd 4f 3c
       0.006516551 0.0088733025 0.046071056 0.012694618
0000f0 5b f2 47 3e 8f 40 e1 3d 75 a4 56 3e df ce 0d be
       0.19526045 0.10998642 0.20961173 -0.13848446

encoder.linear.weight f4 [20, 256]
000000 f4 b3 0c bc 67 43 97 3c 45 dc 95 3a b7 de 47 bd
       -0.008587826 0.018464757 0.0011433443 -0.04879638
000010 2a 8f 00 bd 8f bd e1 3c 72 82 f1 3a 29 22 23 3d
       -0.031386532 0.027556209 0.0018425717 0.0398275
000020 09 6c 96 3c fb 4e 82 bc 6d e7 d6 3c 26 4f 1c bb
       0.018362062 -0.015906801 0.0262334 -0.0023850887
000030 50 b4 0b 3d 77 9f cf 39 ad 6f 6c bd 6b 29 89 bd
       0.034107506 0.00039600927 -0.05772369 -0.06697353
000040 3b 5a 0d bc e6 15 bc 3c 52 aa 48 3d 83 fd ff 3c
       -0.00862747 0.02295966 0.048990555 0.031248813
000050 8f 2e 0f 3d c5 23 89 3c d5 71 f7 bc c5 ee 94 3c
       0.03495651 0.016740689 -0.030205647 0.01818026
000060 b8 12 08 3e 72 12 78 3d 0d 69 d9 3c ae b1 60 bd
       0.1328839 0.060564466 0.02653935 -0.05485695
000070 05 6c 0d 3d 95 6b 2b 3d f8 ac b1 3b e4 c7 5f bd
       0.034526844 0.041850645 0.005422231 -0.05463399
000080 a1 c6 46 bd df 57 ce 3c 19 39 44 bd 10 96 c7 3a
       -0.04852927 0.025188385 -0.047906015 0.0015227217
000090 77 a9 57 bd ae 5e ba 3c c4 83 8b 3c ac 05 9b 3b
       -0.05265185 0.022750225 0.017030604 0.0047309007
0000a0 2a a8 9f 3d 5f f3 1d bd 1f 76 88 3d df e9 d1 bc
       0.077957466 -0.038562175 0.06663155 -0.025624214
0000b0 8a ba 0f 3d ae 8c 05 bb c7 40 29 3d 95 6c 14 3d
       0.035090007 -0.002037804 0.041321542 0.036236364
0000c0 56 98 79 3c 54 47 51 bb d3 ec e9 bb 40 87 82 3c
       0.015234074 -0.0031933384 -0.0071388273 0.015933633
0000d0 8b 61 de bb 0a 48 03 3d ec 24 51 3d b0 d7 26 3c
       -0.0067865304 0.032051124 0.051060602 0.01018326
0000e0 0f 39 8f bb 5e 28 5d bd 85 cb a5 3b 57 b9 03 b9
       -0.0043708156 -0.053993575 0.005059662 -0.00012562178
0000f0 98 18 68 bd 19 6b 1e bd 27 1f 0e bd 5c e6 15 bd
       -0.05666408 -0.038676355 -0.034697678 -0.03659664
000100 0c c8 db 3b a2 73 33 bd 1a a9 07 3d d0 66 bd 3c
       0.006707197 -0.043811448 0.033120252 0.023120314
000110 9e c4 3d bc ad d7 f7 3c 13 21 93 3c 3b ea 10 3d
       -0.011582522 0.03025421 0.017960107 0.03537963
000120 c3 4a 83 bc 2d c8 a1 bc ad 9e fe 3b 33 f5 38 bc
       -0.01602686 -0.019748772 0.0077703805 -0.011288929
000130 25 87 1a bb 90 96 3c bd 8c 86 ad bc 0e 53 34 3d
       -0.0023579088 -0.046042025 -0.021182321 0.04402452
000140 05 26 6f bb 94 df 79 3c af cd da 3c f2 57 d4 bc
       -0.0036491167 0.015251059 0.026709406 -0.025920842
000150 51 f5 46 3c 50 09 77 3d 98 ef ac bc 1b 2a 2c bc
       0.012143449 0.060311615 -0.021110341 -0.010508086
000160 a2 1a 2c 3c 4d a3 b0 bc 7a 45 87 3c 4e 76 58 bd
       0.010504397 -0.021562243 0.016512621 -0.0528472
000170 a8 45 bb bb 1a cc 30 3b f3 47 01 bc 6e 3e 22 bc
       -0.005715091 0.0026977123 -0.007890689 -0.00990258
000180 26 0d 2f 3d ff 07 b3 bb db 13 0c 3d c3 74 95 bb
       0.04273715 -0.0054635997 0.034198623 -0.004561038
000190 34 75 23 ba 74 b1 60 3c b8 31 bb bc 72 2d 66 bd
       -0.0006235421 0.013714183 -0.022850856 -0.056195684
0001a0 8d cc 16 bb 3c c9 b3 39 1e 60 d7 bb 1c 7b 89 bc
       -0.0023010105 0.00034291472 -0.0065727374 -0.016782336
0001b0 6e be df 3b f7 3c 22 bb 71 67 ad bb 4a 33 bf bb
       0.006828121 -0.0024755576 -0.005291872 -0.0058349716
0001c0 c2 34 6b 3d 86 45 b5 3d 67 dc 93 bb 6b dd 45 3c
       0.05742336 0.08851151 -0.004512358 0.012076716
0001d0 ba f3 52 3d 4e 84 7b bd 60 65 e8 3b 26 93 21 bd
       0.051501967 -0.061405472 0.007092163 -0.039446972
0001e0 e3 13 c4 bc 07 91 2d 3d ee 8c 9c bc e0 39 f0 3c
       -0.023935264 0.042374637 -0.01911017 0.029324472
0001f0 b0 1a bb bc 3d e2 68 3d f1 47 e9 bc d5 36 e1 3a
       -0.022839874 0.056856383 -0.028476687 0.0017182479
000200 89 2f de 3c 84 b0 cf 3c a5 0b e8 3c 1b fb a9 3c
       0.027122276 0.025352724 0.028325865 0.02074962
000210 1d 7a e4 3d b0 2c cb 3a 6b 35 14 3d 80 0f 49 bc
       0.11156104 0.0015500989 0.036183756 -0.012271762
000220 f5 f9 3f 3d 9c 88 9c bc 9b 4c 86 3c 9a 0f 27 3c
       0.046869237 -0.01910811 0.01639395 0.010196591
000230 56 eb 05 bd 4a 86 80 3d 16 83 35 bd 1b 42 ae bc
       -0.032695137 0.062756136 -0.044314466 -0.021271756
000240 f2 5f da bc 25 32 62 3c 16 c2 23 3c 20 46 cc 3c
       -0.026657078 0.013805901 0.009995004 0.024935782
000250 9e 44 9d 3d 7b 37 96 3d b1 d6 38 3d 1d 9f 0d 3d
       0.07679103 0.07334801 0.04512662 0.03457557
000260 55 fa 11 3e 1a 88 1e 3e d0 47 22 3d f8 33 3f 3d
       0.1425565 0.15481606 0.039619267 0.04668042
000270 d5 c1 9f 3d b9 be 1c bc 0f 48 66 3d a2 d0 1f 3c
       0.078006424 -0.009566956 0.056221064 0.009754332
000280 0e 54 ea bc 6a e6 c1 3b 3c d1 07 bd ea 50 aa bc
       -0.028604534 0.00591736 -0.033158526 -0.020790536
000290 02 db 59 3d b7 ce 35 3d 3a a8 35 bd e5 f0 ad bc
       0.053187378 0.04438659 -0.044349886 -0.021233032
0002a0 3e a9 db b9 78 c5 88 3a f3 0a c1 bc 47 2a 4d bc
       -0.0004189703 0.0010434827 -0.023564791 -0.012522287
0002b0 ed 95 b4 bc 3e bc 16 ba 5f 5d 4a 3c 21 92 3b 3d
       -0.022044146 -0.0005750096 0.012351363 0.045793656
0002c0 1f 79 20 bd 86 e9 27 bd 63 5b a4 3c 12 0b 05 3d
       -0.03917801 -0.04099419 0.020063108 0.03248126
0002d0 db 33 6b bd e7 ba a1 bc 45 33 41 bc b8 93 60 3d
       -0.0574225 -0.019742442 -0.011792009 0.054828376
0002e0 d4 29 9f bd c9 bd 40 bd 26 c8 b7 bd 35 7a 5d bc
       -0.0777165 -0.047055993 -0.08973722 -0.013517906
0002f0 98 32 b0 3c 12 91 04 bc a9 a9 a4 bc 03 17 e0 3c
       0.0215085 -0.008091228 -0.020100432 0.027354723
000300 30 61 3c bc be 51 c8 bc 53 69 99 3c d7 e2 3a 3c
       -0.011497781 -0.02445304 0.01872698 0.011406622
000310 52 de 49 bd c4 6b 29 3d c1 07 8e bd af 93 99 3b
       -0.049284287 0.04136254 -0.06935073 0.0046867947
000320 85 05 38 bb 91 ca 0c 3d 91 14 82 bc c3 df e0 3c
       -0.0028079462 0.03437287 -0.015878947 0.027450448
000330 e5 e8 1d 3d eb 39 11 bd 89 44 7b 3d 0e a1 35 3d
       0.038552184 -0.035455626 0.061344657 0.044343047
000340 eb 7d 32 bc 28 40 30 3c 99 a7 40 bd 50 57 a8 3c
       -0.010894279 0.010757484 -0.047034834 0.020549446
000350 61 e5 8f 3b 7d c2 4a 3c 21 d3 19 bc f2 fa 7d bc
       0.004391358 0.012375471 -0.009388716 -0.015501725
000360 e9 75 fa bb cf ab 3a 3c a0 ed 48 3d 61 37 46 bd
       -0.0076434505 0.011393501 0.04905474 -0.048392657
000370 a5 09 27 bd 33 d5 af bb ad dc af 3b f6 fa 09 3b
       -0.040780682 -0.0053659915 0.005366883 0.0021054125
000380 fa 9d 08 bc 43 4e 6f 3c 82 76 20 bd 3f e8 4b 3d
       -0.008338446 0.014606061 -0.039175518 0.049782034
000390 ee 37 30 3d 32 0a a8 3c 4c 29 13 bd a8 b9 2e 3c
       0.04302209 0.020512674 -0.035928056 0.010664381
0003a0 7e c3 7a bd cc f1 dc bc 12 42 5e bc 24 c3 98 bc
       -0.061221592 -0.026970766 -0.013565557 -0.018647738
0003b0 92 3c 5b bc d6 29 99 bc a8 06 e6 bc 8e b7 04 3b
       -0.01338114 -0.018696707 -0.028079346 0.0020251009
0003c0 e0 da c9 bd 37 97 34 be 3f e3 d2 b9 7e de b5 bc
       -0.098562 -0.17635809 -0.00040223633 -0.02220082
0003d0 c4 b0 16 bd 57 40 a2 bd b3 d7 95 bc 35 04 0e bd
       -0.03678967 -0.07922428 -0.01829133 -0.03467198
0003e0 53 73 12 be a9 d3 16 bd 8c e6 94 bd 7b 34 f0 3c
       -0.14301805 -0.03682295 -0.07270536 0.0293219
0003f0 fd f7 20 3d c1 70 01 3d 89 97 74 3b 82 59 5b bc
       0.039299 0.03160167 0.0037321767 -0.01338804

encoder.linear.bias f4 [20]
000000 ad 36 1d bd b7 87 37 be 4b 63 f8 bd ae 26 17 3c
       -0.03838222 -0.17922865 -0.12128314 0.009225531
000010 61 f7 56 be f9 f9 95 bd c3 83 d9 bd 47 45 21 be
       -0.20992805 -0.07323069 -0.10620835 -0.15749083
000020 cf 2f 7e 3b 0a c0 96 3e 74 71 33 c0 bb 2c 7b bf
       0.003878582 0.2944339 -2.8037996 -0.9811513
000030 1e f3 c3 bf 70 6b af bf aa 00 e3 bf 0f b9 c8 bf
       -1.5308568 -1.3704662 -1.7734578 -1.5681475
000040 8c f6 cb bf 00 07 af bf b4 6b 91 bf fc ca db bf
       -1.5934615 -1.3674011 -1.1360993 -1.7171321

decoder.linear.weight f4 [256, 10]
000000 fb 98 e7 be 87 bf 09 be 45 59 ca be 93 f3 a9 be
       -0.45233902 -0.13451968 -0.39521232 -0.33193645
000010 d7 2d 84 be a8 b9 1a 3e 79 4e d9 be 79 6b 59 3e
       -0.25816223 0.15109885 -0.42442682 0.21232404
000020 e0 c9 92 3e 04 df 00 3f 0f bc 0b be 2f 27 11 be
       0.28669643 0.50340295 -0.13645957 -0.14175104
000030 57 5f 0a be 62 eb c9 bd 7b 07 88 3e ca 5e c9 3e
       -0.13512932 -0.09859349 0.26568207 0.3933013
000040 72 8a 82 3d 2d d4 db bd dd 87 b5 3e 25 d3 a4 3d
       0.063740626 -0.10733829 0.35455218 0.08048085
000050 65 e6 56 bc f1 86 84 be 51 0d 8e 3d 3a 6f d8 3d
       -0.013116454 -0.25884202 0.06936134 0.1056809
000060 56 dd cc 3e dd cf 38 3e 7e 0a b6 bd d5 08 b2 3d
       0.40012616 0.18048044 -0.0888872 0.08693091
000070 ea 7a d6 bd 48 14 23 3d 27 11 19 3f fd 10 67 3d
       -0.10472663 0.039814264 0.597918 0.056412686
000080 49 2c 85 bc 16 a3 b4 3d 38 29 2a 3e 2c 44 ba bb
       -0.016256468 0.08820169 0.16617286 -0.0056843963
000090 03 a3 35 be 97 50 57 bb f0 1f 14 3e da e5 44 be
       -0.17737965 -0.0032854432 0.14465308 -0.19228306
0000a0 2f f0 ec bb 27 e1 82 bd 3f 2e 12 3d 74 21 98 bc
       -0.0072307806 -0.06390601 0.035688635 -0.01857064
0000b0 53 4d 37 bd e8 fa 57 3e ae f9 ea bd 9a ee 58 3d
       -0.044751476 0.21091807 -0.11473404 0.052961923
0000c0 aa 63 4f bd ec d3 7e 3e 75 d5 07 3e a1 a1 93 be
       -0.050632156 0.2488553 0.13265021 -0.2883425
0000d0 10 b6 52 3a 20 1d fc bd 04 bc 43 be 74 77 5b 3d
       0.00080379937 -0.12310243 -0.19114691 0.053580716
0000e0 71 ee 86 bd e4 fb 3f bd df 27 48 be 73 4b b8 be
       -0.06588448 -0.04687108 -0.1954646 -0.35995063
0000f0 11 b7 d0 3c e7 2f 45 bd 8c b0 d9 bd 9a 67 77 be
       0.025477918 -0.048141386 -0.10629377 -0.24160615
000100 ca 32 e7 bd 67 6a 88 3e 3f fd a5 be 96 fa 98 3e
       -0.11288984 0.2664368 -0.32419774 0.29878682
000110 56 09 6d 3e 8b cc a0 3e 08 03 f8 3e af da 1a be
       0.23148093 0.31406054 0.48439813 -0.15122484
000120 bb fa 2f bd 0f e5 8c be 76 8f 0d bd 7e 5f b6 3d
       -0.042963725 -0.27518508 -0.034560643 0.089049324
000130 b0 8f 4c bd 88 8a 16 be 49 00 9a be d0 97 02 bf
       -0.04994172 -0.14701283 -0.30078343 -0.510129
000140 93 bf 58 be 17 a1 41 be 32 75 30 be 8c e8 f1 bd
       -0.2116683 -0.18909107 -0.17232206 -0.11811933
000150 fe 30 01 be 6d 82 c8 3d 1a 15 c1 bc 26 9a 66 3e
       -0.12616345 0.09790502 -0.023569632 0.2251974
000160 f3 83 23 3e 6e 90 7b bd 49 f3 82 3f 14 11 04 3e
       0.15968303 -0.061417036 1.0230495 0.1289714
000170 b1 97 0b bd e7 81 27 bd 0a ba 8b 3e 75 fb 9b 3d
       -0.03408021 -0.04089537 0.27290374 0.07616321
000180 35 2b 3c be 28 ee 2c be 54 34 4a 3d fe 36 c6 bc
       -0.18375857 -0.16887724 0.04936631 -0.024196144
000190 cf 9a f4 bd 9d 91 16 3e 80 8b 09 3d 1d 09 08 be
       -0.1194359 0.14703985 0.033580303 -0.13284726
0001a0 d7 c6 fd bd 22 c3 89 bd 20 71 b8 be e4 c4 86 3e
       -0.12391441 -0.06726672 -0.36023808 0.2632209
0001b0 62 fd 84 3d 91 6a 00 be 68 01 09 3f b9 87 21 3e
       0.064936414 -0.12540652 0.5351777 0.1577443
0001c0 5e e0 a3 bd e7 26 29 3e 62 1d 15 3b 0a e2 7b be
       -0.08001779 0.16518746 0.002275311 -0.24597946
0001d0 b8 71 de bd dd 83 23 3f 9e 97 e5 be ac 06 5d 3e
       -0.10861534 0.6387308 -0.44842237 0.21584576
0001e0 24 e2 2e be 1a 15 15 3d 17 e1 2a be 55 af 32 3d
       -0.17078453 0.036397077 -0.16687427 0.04362424
0001f0 a8 dc 1e bc ac 8d 25 3e 86 46 17 bc 11 be 08 be
       -0.009696163 0.16167325 -0.009233123 -0.13353755
000200 98 f6 90 be 9e 95 5b 3e b3 d1 66 be a2 57 17 3e
       -0.28313136 0.21443793 -0.22540931 0.14779523
000210 26 28 2a be a6 1f 09 bf ed a5 b3 be 68 64 3d 3e
       -0.16616878 -0.53563917 -0.3508753 0.18495333
000220 64 c7 25 be b0 6c 35 be 77 db 9e be c4 69 b3 be
       -0.16189343 -0.17717242 -0.31026813 -0.3504163
000230 c0 43 8a 3e 42 17 31 3b f4 a5 7b 3e b0 c8 24 3e
       0.27004814 0.002702192 0.24575025 0.16092181
000240 40 81 c0 3d ab 17 9b bd 1b ed 60 bd 5c 3b a5 be
       0.093996525 -0.07572874 -0.05491362 -0.3227185
000250 f5 a2 c0 be e8 f8 3a be 8a 0a 4b be 79 b8 ec 3c
       -0.37624326 -0.18259013 -0.19828239 0.028896557
000260 ab bd 6e 3e 65 ad 06 3e e8 c8 21 be 62 ed 66 be
       0.2331454 0.13152082 -0.15799296 -0.22551492
000270 88 93 55 be b4 d1 ee bd d7 73 9a 3e 73 99 b4 3d
       -0.2085706 -0.116610914 0.30166504 0.088183306
000280 e6 ca c4 3d cf 0f 0a 3e da 57 b7 3e e7 dc e7 3c
       0.09609012 0.13482593 0.35809213 0.028303577
000290 63 64 2a bd 8f 8a 4e be 9c b8 f7 3c ca 00 32 bc
       -0.041599642 -0.20170043 0.030239396 -0.010864446
0002a0 8e 43 c6 bc d8 45 14 be ac 18 b5 3d e4 c6 fc 3d
       -0.024202134 -0.14479768 0.088425964 0.12342623
0002b0 09 a9 69 3e f8 8d d9 be 1b 30 c3 3e 08 5a 8c 3e
       0.22818388 -0.42491126 0.3812264 0.27412438
0002c0 13 06 dc 3e 57 4d 4e 3e 6a da f0 3d 20 3e 57 be
       0.42973384 0.2014669 0.11760409 -0.21019793
0002d0 0b c7 fa 3a 64 03 96 3e 08 a1 fd 3d f7 f0 2b be
       0.0019132806 0.29299462 0.1238423 -0.1679114
0002e0 f9 f5 85 be 69 29 7e be 41 e4 52 bd 38 28 22 3e
       -0.26164225 -0.24820484 -0.05148721 0.15835655
0002f0 39 a3 90 be ea 8c ac 3e e3 05 3d be 2e 88 b7 be
       -0.2824953 0.3370126 -0.18459277 -0.35846084
000300 f6 23 9c bd ec 8b d9 bc 47 93 8c bc 56 a0 26 be
       -0.076240465 -0.026555978 -0.017160071 -0.16272101
000310 dc 9b 85 3d 6a a7 45 bc 4d 19 3c be c4 dc 2e 3e
       0.065238684 -0.01206384 -0.18369026 0.17076403
000320 73 96 83 bd d9 6e 01 bd ff c2 13 3e 27 f3 85 be
       -0.0642518 -0.031599853 0.14429854 -0.26162073
000330 ae c5 3b 3c 41 e4 5c be d4 3a 6c 3d 50 6f 0f bc
       0.011460705 -0.21571447 0.05767329 -0.008754566
000340 29 3a a4 3d 54 7b 6a 3e 09 12 97 3e 2e aa 4f 3e
       0.08018906 0.22898608 0.29505947 0.20279762
000350 99 52 c2 3d c3 5a 37 3e f1 64 7f 3e c5 86 c9 3d
       0.094884105 0.17905717 0.2494085 0.098401584
000360 bd ac 9f bb ca b5 4e 3d 10 75 0b 3e 44 90 a5 bc
       -0.004872887 0.050466336 0.13618875 -0.020210393
000370 96 b1 e2 3e 1a df c6 3d 15 d2 66 3e 02 5c 57 3e
       0.44276112 0.09710522 0.22541077 0.21031192
000380 08 f3 35 3d b9 b0 17 be ce 98 bb 3e 53 e1 02 3e
       0.044421226 -0.14813508 0.36640018 0.12781267
000390 19 e1 ff bc 4d 6a 2a be 81 ba 2b 3e 29 4b b6 be
       -0.031235265 -0.16642113 0.16770364 -0.35604218
0003a0 55 6a b1 3d e5 f9 66 3e 07 29 9d bd a3 cc 4f 3e
       0.08662859 0.22556265 -0.07673841 0.20292906
0003b0 fe 47 8f 3e 76 65 84 be 6a 11 9f 3b 87 92 83 3e
       0.27984613 -0.2585866 0.004854371 0.2569773
0003c0 ab 86 35 be 16 42 f7 bc 84 f9 4d 3e 45 ad 04 3e
       -0.17727153 -0.03018288 0.20114714 0.12956722
0003d0 3e 21 a0 3e 29 02 81 3e c3 ae f7 3b a9 cf 22 bc
       0.31275362 0.2519696 0.007558675 -0.009937205
0003e0 bc cf ef bc 7e 0b 95 bd da 4e e1 bd 8e 38 10 3f
       -0.02927386 -0.072775826 -0.11001368 0.56336296
0003f0 ad 9e a4 3d b5 b4 26 bd e5 c0 f2 3e 1f 58 1c 3e
       0.080380775 -0.04069968 0.47412792 0.1526799
