runs/Chair/model-200.pt (torch_old, 958162 bytes, 19 tensors)

encoder.conv2d_1.weight f4 [32, 1, 4, 4]
00000000: d460 55bb 0f86 b53d a389 88be 006b 50be
00000010: 8c3d cabd 4fbe 1d3e 88ef 033e 5934 503e
00000020: d783 d5be 6b45 cb3d 95e8 27be 0a38 3e3e
00000030: b1d5 9dbe 9708 18bf 6ecd 24bf 9cd0 96be
00000040: d291 2a3e 2370 2e3e 5ead 86be 4b1f d7be
00000050: 998e 8e3d 7713 303e 523a 673d f636 4c3e
00000060: 5354 e3bd 2153 e4bd 2bcc de3d b89e ccbe
00000070: 6e07 6abe a5ac 61be d47a eebd 070b af3e
00000080: 2950 46be 15f9 41bd b38e bf3c ba1d 83be
00000090: e8ab 22bd 95cd 743d 63a2 74bd 4fe8 f63c
000000a0: 9a4b f3bc 24b0 c23b c28f 713d 8254 76bd
000000b0: 773a 29be 32dc c5bd 607e 5abd cc47 47be
000000c0: b777 e8bd 2160 1ebd 04ac c03d bb1d 063e
000000d0: da5b c8bd 6285 623c e909 3a3d 0822 283c
000000e0: 5a1f d3bd 7450 3ebe be91 6abe 7a6b fabd
000000f0: 9bef bf3c 87a2 853d d437 f63c f1da 1abe
00000100: c6c3 a03c 3fce 80be ab17 60bc 466c 2dbe
00000110: ab05 933d 4e9a 543e 8667 98bd 2b76 babc
00000120: 8453 d93c 927a 563e 4bbf 2e3e e0ae 453e
00000130: 1586 293c dbe6 80be 4da0 23be bb99 e7bd
00000140: 1849 92bd 37d9 733e 2a6b d23d 08d7 d5bd
00000150: a54c 373d f5c4 1fbd 2d3f 06bd 7711 acbd
00000160: 94d7 473d ddb5 a1bd 5d45 9e3d 22f8 c0bc
00000170: 3a04 993d d07f 893d 6773 85bd e243 d3bd
00000180: 529c 843d 855f 503c 3943 57be 790a 8fbd
00000190: 205d 393e a2c8 233d 39bf 68bb 5cd2 8b3d
000001a0: 94a4 46be 8dc4 853d 1d7b aabd 3402 d4bc
000001b0: 29d5 6c3a 51b2 583d 6d11 e4bd cf4a 2ebd
000001c0: 123f 2dbe 36c8 2e3e 0526 c73d 1ba0 52be
000001d0: a9e2 fcbd 03be 75bd 16f1 1b3d 4bcf 273d
000001e0: b83a 04bd f841 05bd a9e1 70be 2a26 393e
000001f0: 2b89 dabd c574 24be 4e3e a2bd 9852 26be
00000200: b7ec 13be 1274 003e 4747 75be e698 a1bd
00000210: 7cd6 da3c e2a8 31be 8c7e b83d 4414 11bd
00000220: e677 39be 4ee0 dcbc 443e 60bd c1b9 183e
00000230: 2c13 e7bb 7adc fe3c 34e9 343e 5da2 73bd
00000240: c65b 5dbd 9dff 6abd 0057 8f3c 8eba 05bd
00000250: 7ebe 51bc b5f6 1f3d 31ee 68bd e321 7e3b
00000260: feff 69bd 17ab 143d 90d6 2abd 3697 23bd
00000270: 0dc5 063d 82ed b1bd 4806 15bd 4067 cebc
00000280: 6789 13bd df60 f4bc b454 89bc 3ea4 58bd
00000290: 35d0 88bd 2f47 63bd dde5 25bd af1d 313d
000002a0: 0c45 59bd 42ab 073c 2bc3 283d 8df8 76bd
000002b0: ef43 c63d 8968 8d3d 2302 52bc 968e 56bc
000002c0: 563e 29be 5d89 10be f98d 293e ecef 89be
000002d0: 109b d6bd d0e5 9bbd 20c8 fa3d fb9a ef3b
000002e0: ba2b 26bc 2ea0 093d ac8b e8bd 7da1 93bd
000002f0: e293 b2be 8b8a aa3d 8b0c 093e 84d0 123e
00000300: 1285 4e3c 75bf b23d f793 7abe 94bc fe3d
00000310: 1595 01be c0b1 3d3e b402 4dbd d066 11bd
00000320: 5e61 debd 8763 933e 05bf afbd d8f5 3bbe
00000330: 06f9 b0be 2405 533e db2e 4dbd 1bc4 64bd
00000340: ca09 7a3e 5163 cb3d d64f 40bc 9f33 e0bd
00000350: c3c0 db3d 5874 36be 3506 9bbd 01b5 fbbc
00000360: 601b 35be 77e7 57be 1b75 113e b2d8 203d
00000370: f534 b53a 2cac 7b3e 7fd1 38bc 616c c0ba
00000380: 0433 53be 325b d33d 0b43 07be df1c 823d
00000390: 9bc5 23be d365 b2bd ab7e 9a3d 0142 793e
000003a0: 34a2 a13c 2a8c bd3e 5354 f73d dc47 93be
000003b0: 635c 52bd 9982 7ebe e7e6 52be 606f 013e
000003c0: 2648 273d 41d1 b03d 9189 38bd 5aa7 32be
000003d0: aa85 033e 0c2f 75be 843f 533d 75d9 b0bd
000003e0: b85b bcbc d4ed b6bd e6ef 0dbe f7ca 843c
000003f0: 2735 143e 9e47 cabd c0b1 b6bd 3c6a b93d
-0.0032558935 0.0886346 -0.26667508 -0.20353317 -0.098750204 0.15404628 0.12884343 0.20332469
-0.41702148 0.0992535 -0.16397317 0.18576065 -0.30827096 -0.5938811 -0.6437596 -0.2945603
0.16657189 0.17034964 -0.26304144 -0.42016062 0.06960792 0.17194925 0.056452103 0.19942841
-0.11100068 -0.11148668 0.10878786 -0.39964843 -0.22854397 -0.22038515 -0.11644521 0.341881
-0.19366516 -0.047356684 0.023383474 -0.25608617 -0.039714724 0.05976637 -0.059725177 0.03014007
-0.029699136 0.0059414078 0.05897499 -0.060139187 -0.16526209 -0.096611395 -0.053343177 -0.19460982
-0.11350959 -0.038665894 0.094078094 0.13097279 -0.09783144 0.013825746 0.045419607 0.01026202
-0.10308714 -0.18585378 -0.22907159 -0.12227531 0.023429682 0.0652514 0.030055918 -0.15122582
0.019624602 -0.25157353 -0.013677518 -0.16935834 0.071788155 0.20761988 -0.074416205 -0.022761425
0.026529081 0.20945194 0.1706516 0.19304991 0.010346909 -0.2517613 -0.15979119 -0.11308619
-0.07142848 0.2381333 0.10274346 -0.104414046 0.04475083 -0.039006192 -0.032775093 -0.08401769
0.048789576 -0.07896016 0.07728074 -0.023555819 0.07471509 0.067138314 -0.06516152 -0.10315682
0.06475128 0.012718086 -0.21021737 -0.069844194 0.1810193 0.03998626 -0.0035514368 0.06827232
-0.19398719 0.0653163 -0.08324263 -0.025879957 0.0009034449 0.05290443 -0.11136136 -0.04255181
-0.1691859 0.17068562 0.097240485 -0.20568888 -0.123479195 -0.059995662 0.038071714 0.040969174
-0.03228256 -0.032533616 -0.23523583 0.18080965 -0.10670694 -0.16060169 -0.0792204 -0.16242445
-0.14445768 0.12544277 -0.23952971 -0.07890491 0.026713602 -0.1734958 0.09008512 -0.035419717
-0.18112144 -0.026962426 -0.05474688 0.1491461 -0.007051846 0.03111099 0.17667085 -0.059481014
-0.0540426 -0.057372678 0.01749754 -0.032648616 -0.0128017645 0.039053638 -0.056867782 0.0038777522
-0.0571289 0.036295976 -0.04170853 -0.039939128 0.032902766 -0.08687879 -0.036382943 -0.025195718
-0.03601971 -0.029831348 -0.016764022 -0.05289101 -0.06680337 -0.055487808 -0.040502418 0.0432412
-0.053044364 0.008280577 0.04120175 -0.06029563 0.09680926 0.06904704 -0.012817892 -0.013095519
-0.16527686 -0.141149 0.16558065 -0.26940858 -0.104787946 -0.07612193 0.12245202 0.0073121763
-0.010142261 0.033600025 -0.11354765 -0.07208536 -0.3487845 0.08327206 0.13383691 0.14337355
0.012604969 0.08727924 -0.24470507 0.12438312 -0.12654527 0.18524837 -0.050051406 -0.03549844
-0.10858415 0.2878687 -0.08581356 -0.183555 -0.3456499 0.2060743 -0.050093513 -0.055851083
0.24417797 0.099310525 -0.011737784 -0.10947346 0.10730126 -0.17817819 -0.07569543 -0.030725958
-0.17686224 -0.2108439 0.14204828 0.039269157 0.0013824987 0.24577397 -0.0112804165 -0.0014680737
-0.2062493 0.103201285 -0.13209169 0.06353163 -0.15993349 -0.08710828 0.07543691 0.24341585
0.019730665 0.37021 0.120766304 -0.28765762 -0.051357638 -0.24854507 -0.20595895 0.12640142
0.04084029 0.08633662 -0.04505307 -0.17446652 0.12843958 -0.23943728 0.051574245 -0.08635227
-0.022992954 -0.08932081 -0.13861045 0.016210062 0.14473401 -0.09876941 -0.08920622 0.09053466

encoder.conv2d_1.bias f4 [32]
00000000: cb5a 05bc 8ae4 70be 1665 493d f19e d2bb
00000010: ee40 7bbe 0dfd 2dbe 9330 81bd 2ac5 c0bc
00000020: 39e7 80bd 8559 c23d 1946 b5bb fc23 afbe
00000030: 80ca 2bbe a0b4 a3be 9aaa ffbd 9775 e1bd
00000040: 7664 88bc f34e 45be e100 da3e eccf 5fbc
00000050: e23c ddbe cb58 24bf ef95 05bf 169e b2be
00000060: e97c d5be 25c6 d9be 8446 05be ab71 1dbc
00000070: 378b 53be 1646 35be 04cc 93be 2f0c 60be
-0.0081393225 -0.2352468 0.04916867 -0.0064276387 -0.24536487 -0.16991062 -0.06308093 -0.023531515
-0.06294102 0.09489731 -0.005532038 -0.3420714 -0.16776466 -0.31973743 -0.124837115 -0.110087566
-0.016649466 -0.19268398 0.42578796 -0.013660412 -0.43210512 -0.6419799 -0.52181906 -0.34886235
-0.4169686 -0.42533985 -0.13015181 -0.00960962 -0.20658575 -0.17702517 -0.2886659 -0.21879648

encoder.conv2d_2.weight f4 [32, 32, 4, 4]
00000000: 3f8f ba3e 15e8 3abe 268c c9bd 21d4 f9bc
00000010: 1a99 efbe faa1 4ebe ca57 17bf 2e1d 4d3e
00000020: 59c9 54bc 7b7a c4bd 75c8 1bbf ede3 133f
00000030: 39a9 74be 4049 02be 416e dabe 2004 d63d
00000040: a09f 87be e7b1 503e 080c ecbe ab58 32bf
00000050: a81b 8b3d 04d2 aa3e 32a7 003e 87a0 263f
00000060: b73b d23b 209f e63d 41b5 33be 0c23 ea3e
00000070: de38 3a3d e702 83be cfb8 8abe b886 183e
00000080: ee86 63be 957c 7bbe 544b c4bd 4e5d d43e
00000090: 81d2 bdbd a361 e0bd 9718 9a3d c100 1fbf
000000a0: fa71 4bbc 796f 48bd 0b60 4fbd ee36 b43e
000000b0: 3a77 233e ab00 c43d 8d66 043e 1867 1ebe
000000c0: 4676 62bf 9e63 52be 94dc ccbe a960 c0be
000000d0: c5d7 85be a3e8 073f 03ae 473e b5d8 00bf
000000e0: da70 4abe 33a7 dabc 707f a3bc f776 8dbe
000000f0: fe03 84bf 5972 9c3d 0eb3 abbe 23fe 663e
00000100: 56a4 c73e 8097 a73c 92b9 e7be e1e0 843e
00000110: f1bc 1cbf d867 e83e 8740 e63e cafb 83be
00000120: 0e29 67bd b29a 8cbe 4261 95be 34a7 2dbd
00000130: 47b3 1c3e 2382 10bf 0b2f bf3d 006f 133e
00000140: 3815 7abe 12e2 913b 53bc 8cbd ab75 61be
00000150: c3b8 75be 76b6 bcbd 6682 f03d 22e9 c33d
00000160: 8009 8cbe c378 01be db37 53bd d41b 74bd
00000170: 75dd b03d e73b 00bd 7bc9 2abc 878d 3dbb
00000180: 496a 37bf 790d 9b3c e9be 82bd 6813 99be
00000190: d480 1f3f d84c 813e 9ab7 8b3c 8ec9 2e3d
000001a0: ad4a d5be 6d82 47bf a5b2 e4be 068d 9ebd
000001b0: 519a 42bf d6b3 3fbf 2cef 81be 4e2e 0c3e
000001c0: 7632 2d3e 313d 9bbe b4f7 1ebf 9795 21bb
000001d0: 75c3 dd3d eb08 cb3d 2e98 85be 6f16 31bd
000001e0: 754d 6dbf 52c1 e4b8 5ab2 493e e205 e6bc
000001f0: 21b5 d0be 208a 6cbe 4768 ec3e 5342 60be
00000200: 9c51 88be 5984 99be 2c01 9d3c 4300 38bd
00000210: edcb a53d 21d8 b0bd 9fc3 003f 8f4c 2e3f
00000220: b915 2fbe fc6f 47be f5ff e6bd 3552 7b3e
00000230: eb44 ddbe 15f6 82bb e68a 93be 007a e43d
00000240: c5ce 25be f099 aabe f272 a83e a102 e73e
00000250: 2e3c f43e acda bb3d bfb6 2dbe 6fde 8abf
00000260: b437 aa3e 80a5 273f eea4 23be 2cb3 3d3f
00000270: 30a0 1ebe 808d a4be 2004 f5bf db21 5abf
00000280: a5ce 193e 328b 2ebe 38b0 d3bd d5de 943e
00000290: aa14 6bbe 7a89 f33c bdaa 85bd 64f4 553e
000002a0: de3d 083f ab22 d3bb 33ac 53bf d607 2c3e
000002b0: 2c86 b8be 6801 7fbe 4561 3f3e d83c f43e
000002c0: 6d26 7d3d b3bb 9d3b d515 cabd 69b2 30bd
000002d0: 528d 1fbe eec4 693b de22 25bd 2b32 b9bc
000002e0: 954e d9bd 0b19 23bc fc00 1ebd d0a7 71bd
000002f0: 7204 95bd f8e7 4c3c 349d 093d fe68 973d
00000300: d8ff 1d3c 55b2 dcbd b290 1a3e 0b5f dcbc
00000310: cd76 1cbf d99a 04bf e894 6f3d 1e01 83bd
00000320: ed77 9abe 435f 71be 1d63 503e c36a af3e
00000330: 0c40 96bd da02 313d 063b 9ebc 03ae e7bd
00000340: 9658 3abe 7302 48be ad04 533d 8d44 f13d
00000350: 93f9 ecbd 0bbf 3fbf 37a4 f7be 2357 e63d
00000360: af9d afbe effb 20bf aa7b d2be 1588 ec3d
00000370: b9b4 f23d d96a d4be 59ff 193e 46e5 803e
00000380: ec88 103e 4049 72be b96b 84bd cbda 083f
00000390: 57d4 bbbe e0c9 933e 9e12 73be a17c cf3d
000003a0: 95af 6bbe b314 073e 228c 4b3d 341e 1c3e
000003b0: 481c 443d 4fab 26be e888 ff3e d238 383d
000003c0: b5d6 56bf 6488 bc3d d352 c5be 0852 b5be
000003d0: bdec 463f 3ab1 bebe 0eb5 d8be 0da7 99bf
000003e0: 82cd d93d 34aa 0f3e 637c 323f 97ea 243e
000003f0: bc42 78bd 2061 28be 1e0e d2bd 5355 0e3e
0.36437413 -0.18252595 -0.09841184 -0.030496659 -0.46796495 -0.20178977 -0.5911833 0.20030662
-0.012987458 -0.09593674 -0.6085275 0.5776966 -0.23892678 -0.12723255 -0.42662242 0.104500055
-0.26488972 0.20380364 -0.4610293 -0.69666547 0.067923844 0.33363354 0.1256378 0.65088695
0.00641581 0.112608194 -0.17549612 0.45729864 0.04546439 -0.25588152 -0.27094123 0.14895141
-0.2221944 -0.24559243 -0.0958468 0.41477436 -0.09268666 -0.10956123 0.075242214 -0.62110525
-0.012417311 -0.048934434 -0.050628703 0.35198158 0.1596345 0.0957044 0.12929745 -0.15469015
-0.8846172 -0.20545813 -0.40012038 -0.37573746 -0.26141182 0.5308935 0.19499974 -0.5033067
-0.19769612 -0.026691055 -0.019958228 -0.27629825 -1.0313718 0.076389976 -0.33535045 0.22557883
0.38992566 0.020457983 -0.45258766 0.2595282 -0.612258 0.45391726 0.44971105 -0.25778037
-0.056435637 -0.27461773 -0.29175764 -0.042395785 0.15302764 -0.5644857 0.093351446 0.14397812
-0.24422157 0.0044519985 -0.068718575 -0.22017543 -0.23996262 -0.09214489 0.117436215 0.09565951
-0.27350998 -0.12643723 -0.05156694 -0.05959685 0.086359896 -0.031307127 -0.010424013 -0.0028923468
-0.71646553 0.018927323 -0.063840695 -0.29897618 0.6230595 0.2525394 0.017055321 0.042672686
-0.41658536 -0.7793339 -0.44667545 -0.07741742 -0.7601672 -0.7488378 -0.25377786 0.13689539
0.1691378 -0.30320123 -0.62096715 -0.0024655813 0.10828296 0.0991381 -0.26092666 -0.043234285
-0.92696315 -0.00010907896 0.19696942 -0.028078977 -0.4076319 -0.23099566 0.46173307 -0.219003
-0.26624763 -0.29983786 0.019165598 -0.044922125 0.080955364 -0.08634973 0.50298494 0.6808557
-0.1709813 -0.19476312 -0.11279289 0.24543078 -0.43216643 -0.0039966204 -0.2881691 0.11156082
-0.16192158 -0.3332057 0.32900196 0.45119193 0.47702163 0.09172568 -0.16964243 -1.0849131
0.33245623 0.6548691 -0.15980884 0.7410152 -0.15490794 -0.32139206 -1.9141884 -0.8520791
0.15020235 -0.17045286 -0.103363454 0.29076257 -0.22957101 0.02972864 -0.06526706 0.20894009
0.532194 -0.0064433417 -0.8268463 0.16799864 -0.36039865 -0.2490288 0.18689449 0.4770267
0.061804224 0.0048136353 -0.098674454 -0.043138895 -0.15581253 0.0035670358 -0.040316455 -0.02260693
-0.106106915 -0.009954701 -0.038575158 -0.05899793 -0.072762385 0.012506478 0.033597186 0.073930725
0.009643517 -0.10776202 0.1509426 -0.026900789 -0.61118776 -0.5179878 0.058491617 -0.063966975
-0.3016962 -0.23571496 0.20350309 0.3426114 -0.07336435 0.04321561 -0.019315254 -0.11312487
-0.18197855 -0.19532184 0.05151813 0.11780653 -0.1157104 -0.74900883 -0.48367473 0.11247089
-0.3429999 -0.6288442 -0.41109973 0.11549393 0.11850876 -0.41487768 0.15038814 0.25174922
0.14114732 -0.23660755 -0.06465859 0.5345885 -0.3668544 0.28864956 -0.2373757 0.10131193
-0.23016198 0.1319149 0.049694188 0.15245897 0.047878534 -0.16276287 0.4990914 0.044976063
-0.83921367 0.09205702 -0.38539752 -0.35414147 0.77704984 -0.37244588 -0.42325634 -1.2004105
0.10634901 0.14029771 0.6972105 0.16105114 -0.060610518 -0.164433 -0.10256599 0.13899736

encoder.conv2d_2.bias f4 [32]
00000000: efb7 6bba 6bd6 c6bc 5c9f 203c 36c6 d0bc
00000010: ed84 29bc 786d 6ebd 7d89 c0bc 6025 993c
00000020: 0810 ca3c cfe0 1b3d 3079 203b 35bb 8bbd
00000030: 6cb8 9ebb 640f f03c 8fb7 f53c 9d3a c83c
00000040: 5e76 95bd e30e 49bc ea1c c33c ad30 253d
00000050: 83e7 e33c cd97 faba 6813 e63c 61ec 8a3b
00000060: ac61 4b3c f3ee 91bd 214b 30ba 0e45 cabb
00000070: c6a6 053c be2c 1abd bc96 3b3d 3af3 92bb
-0.0008991947 -0.024272164 0.009803619 -0.02548514 -0.010346633 -0.058209866 -0.02350306 0.01869458
0.024665847 0.03805619 0.0024486296 -0.06822816 -0.004843762 0.029304214 0.029994754 0.024442011
-0.072979674 -0.012271616 0.023817498 0.040329624 0.027820354 -0.0019118726 0.028085425 0.0042396043
0.0124134235 -0.07125654 -0.0006725062 -0.0061727827 0.008157438 -0.037640326 0.04579805 -0.0044845613

encoder.conv2d_3.weight f4 [64, 32, 4, 4]
00000000: 49c5 013f 3524 3dbe e74e a0be c4ca 903e
00000010: b69a 8ebf c696 9b3d 4695 a33d 260e f7bd
00000020: 854e 6cbe 9d85 ad3e 08fc 77bd f135 d83e
00000030: e0f7 8d3f a6fa 7e3d 4848 3e3e 39c4 1b3d
00000040: 381d 3c3d 6a8a 02bc 2cb4 95bc a506 4fbc
00000050: f1a7 093d 4c5a b0bc a7a6 eb3b b663 aebc
00000060: 8891 863b 50e5 f93c 577b b7bc 8770 e4bc
00000070: 313a 8b3c 63b6 853c 7860 0bbb 0c3c ddbb
00000080: 5749 c3be 9a83 c5be 123b 083e a823 b33a
00000090: 447d dd3e 1abb 66be 90ed d63e 5d8c f3bd
000000a0: 33f8 3dbd 008e d7be fd77 8b3d e845 5a3c
000000b0: a93f d4be 2d4e 2b3e c3df ad3d b915 113e
000000c0: 39cd 86bc 3587 8c3c ac3f cabb 55a0 b93c
000000d0: 926d 7ebd 12c5 ddbc 2365 dcbc 0673 203c
000000e0: 5760 39bc 2aba 1ebd 7a09 9bbc 6831 fdbc
000000f0: 59e9 76bb 7f43 3a3d 952e 1d3c 1d60 bfbc
00000100: f5bf cb3e 9e89 913e 1fce 963c b609 e93e
00000110: 2e51 983e fb91 f7bc 3b97 e1bd 0b6e 283f
00000120: 1b21 9f3e 929a 5cbd ddfe c3bd f271 3cbe
00000130: 8e39 1abe 998d 1e3c d3be f6bd 018f cdbd
00000140: 1748 5cba 447d 7fbc add4 99bc 2265 d2bc
00000150: 97ce 283b 8eec bbbc 4e23 c4bc 27a0 24bd
00000160: a14f 133d d48e 093d 3e97 80bb 6c40 1f3d
00000170: 24ff 863c 94e2 05bc 3848 e7ba 27b3 503c
00000180: dd6f e0be 9372 02be afe5 673d 7f00 033e
00000190: 3e1e c4be f9fe 563e 6f53 00bd 66c9 a03d
000001a0: 0ec6 a6bd 4070 aabe 955e fabc 1b5b 06be
000001b0: 901f a4bc 211c 9a3d 985e cd3d e91f 9cbe
000001c0: 18d5 4abe cd86 7b3c 5dec df3e 6837 d8be
000001d0: cf30 ccbe 8d58 093e 6700 5d3e b17c fdbd
000001e0: 16df 6e3e cb91 333d 713d f1be b5f4 d2bd
000001f0: e1d7 913e 3449 e2be 5361 edbe ad07 803e
00000200: 6834 973d edbb 29bc 731f b0bd b33a 4f3d
00000210: c0b8 b3bd 1749 96be 5546 b53e 548e a63e
00000220: 33a1 f0be 9908 45be 2c32 b1be 0262 0d3e
00000230: 7b17 eb3e c43d 403e b319 87be 2b15 f43d
00000240: 2212 0c3d 1008 cdbe 23f5 d83d f194 8b3e
00000250: 7d91 6b3e 50c5 753c 795b 6f3e 5702 0f3e
00000260: aa5b 5f3e 86d0 203e 962e babe c4d3 5b3e
00000270: 2a1a c5be 46c9 4fbe b85c 7d3d 2d07 65be
00000280: d7d2 723d f6c7 37bf 4496 afbd fc56 f83d
00000290: 5792 9b3e 9f22 43be c21e 8dbb 436d 56be
000002a0: 7e71 f83a b78c 203b eb12 0b3e 646c f23c
000002b0: d93d dc3e 6803 5b3e 390f 353d d232 25be
000002c0: 8eaf 83bb e3e1 1ebd 72c1 803c e8a9 273d
000002d0: 49bd 4fbb 2401 a2bc 685e 153d a5ec 803c
000002e0: e57e 893b de26 a53c ebfd 26bd bc24 90bc
000002f0: 7c45 9b3c d9fe cc3b 26a4 8fbc 914e 0bbd
00000300: 0a35 063f 7e5e 2dbe 9d8c 8ebd da00 e43d
00000310: 9235 ee3d 185a 353d 0beb 64bd 8d34 48be
00000320: e4fe d6be b457 023c ccef 0ebd 89a1 963d
00000330: c650 f5bb 7d58 b2be 3c64 0dbe c0b9 23be
00000340: f7ee 103d 1e88 07bf e0e2 353e 53e9 cebe
00000350: 9d8f 8ebe 602b d9be ca26 dbbd 2e62 293d
00000360: 6f17 d2bd 8ddc 863d 8780 ca3e 8b45 04bd
00000370: b8ab 3bbe 26d9 3b3e d7b8 5b3e 892c 32bd
00000380: 0d92 66bf 5c10 c93d 291c afbe 047f b93e
00000390: d784 96bf 40c8 593e ede6 6bbd b3c5 d7bd
000003a0: cd18 a43e 10d4 6fbe 3690 92be 14ad 20bd
000003b0: 91ad 063e d95f e13d b57e 7dbc 38f4 4b3e
000003c0: 70af 673e 4280 533e 5ee4 aebc 6a53 ab3e
000003d0: c016 9cbd d86b 973d c388 ffbe fbea 3c3e
000003e0: 7f0e adbd 775d d9be 89e2 04be 080f fc3d
000003f0: b729 023e 782e 0bbd 39e5 763e 1327 2d3e
0.5069166 -0.18470843 -0.31310198 0.28279698 -1.1140964 0.07597117 0.07987456 -0.120632455
-0.23076828 0.33891 -0.06054309 0.42228654 1.109127 0.062250756 0.1858226 0.03802893
0.045926303 -0.007967571 -0.01827439 -0.0126358615 0.033607427 -0.021527432 0.0071914974 -0.02128778
0.004106704 0.030504853 -0.02239768 -0.027885688 0.016995521 0.01632232 -0.0021267217 -0.006751543
-0.3814189 -0.38576967 0.13303784 0.0013667243 0.43259633 -0.22532311 0.4197812 -0.118920065
-0.04637928 -0.42100525 0.06809995 0.013322331 -0.4145482 0.1672904 0.08489945 0.14168443
-0.01645528 0.017154315 -0.006172141 0.02265946 -0.062116213 -0.02707151 -0.026903694 0.009793049
-0.011314473 -0.03875176 -0.018925417 -0.030907348 -0.0037675707 0.045474526 0.009593626 -0.02336126
0.3979489 0.28425306 0.018408833 0.4551522 0.29749435 -0.030220976 -0.11015173 0.6579291
0.31079945 -0.053858347 -0.09570096 -0.18402842 -0.15061018 0.009677314 -0.120481156 -0.100370415
-0.0008403076 -0.0155938305 -0.01877817 -0.02568299 0.0025757903 -0.022939947 -0.023942616 -0.040191796
0.035964612 0.033583477 -0.0039242795 0.038879797 0.016479082 -0.008171696 -0.0017645424 0.012738026
-0.43835345 -0.12739019 0.056615528 0.12793158 -0.38304323 0.20995702 -0.03132957 0.07850914
-0.08143245 -0.33288765 -0.030562678 -0.13120691 -0.020034581 0.075248964 0.10027808 -0.30493096
-0.19807851 0.015351963 0.43735018 -0.42229772 -0.39880988 0.13412686 0.21582185 -0.123772986
0.23327288 0.04384021 -0.4711719 -0.103005804 0.28485015 -0.44196475 -0.46363315 0.25005856
0.073830426 -0.010359746 -0.085997485 0.05059309 -0.08775473 -0.29352638 0.35405222 0.32530463
-0.46997985 -0.19241561 -0.3460859 0.13806918 0.45916352 0.18773562 -0.26386794 0.119181
0.03419698 -0.40045214 0.10593631 0.2726207 0.23004718 0.015000656 0.23374738 0.13965736
0.21812311 0.15704545 -0.36363667 0.21467501 -0.38496524 -0.20291623 0.061856 -0.22366019
0.059283104 -0.7178949 -0.08573583 0.12125966 0.30385086 -0.19056176 -0.004306645 -0.20940118
0.0018954722 0.0024497935 0.13581435 0.0295927 0.43015936 0.21388018 0.04420397 -0.16132668
-0.0040187305 -0.03878964 0.015717242 0.04093352 -0.0031698516 -0.019775935 0.036466986 0.01573784
0.004196035 0.020160135 -0.0407695 -0.017595641 0.018954031 0.006255966 -0.017534327 -0.034010474
0.5242468 -0.16930577 -0.069604136 0.11132975 0.116313115 0.044275373 -0.055888217 -0.19551297
-0.4199134 0.00795548 -0.034896657 0.07355029 -0.0074864356 -0.34833136 -0.13807768 -0.15988827
0.035384145 -0.52942073 0.17762327 -0.40412387 -0.27843943 -0.42415905 -0.10700758 0.041353397
-0.10258376 0.065850355 0.39551184 -0.032292884 -0.18327224 0.18344554 0.2145723 -0.043499503
-0.90066606 0.098175734 -0.34201172 0.36229718 -1.175929 0.21267796 -0.057593275 -0.10535755
0.32050171 -0.23420739 -0.2862565 -0.03922756 0.13152148 0.110046096 -0.015472104 0.19917381
0.22625518 0.20654395 -0.021349128 0.33462077 -0.07621527 0.073936164 -0.49909028 0.18449013
-0.084500305 -0.4245412 -0.12977041 0.123075545 0.12711225 -0.033979863 0.24110879 0.16909437

encoder.conv2d_3.bias f4 [64]
00000000: 224f 3bbb 6f42 e83d 82f0 cd3c 3f86 e43d
00000010: 521a 573c d8d9 69bd e36e cebb 03ba ff3d
00000020: 66a3 9fbd 6002 f0bc 4dfd 093d ef3f ff3d
00000030: ca85 da3d eec3 60bd 3162 3abd 0ac8 7dbd
00000040: 5a40 9ebd 1411 e33d 5165 80bd 45b7 a2bc
00000050: eb68 963c 8833 7f3d 56f4 96bd 9bd6 80bb
00000060: bedb d4bb 0323 34bd f17b 66bd c6f6 0bbd
00000070: 9349 b0bc efe7 81bd b673 1c3c 063e 693b
00000080: 893d 84bc 49be e5bc 2ce0 2cbd c581 83bc
00000090: 0383 b03d df95 4c3e 6f58 c13d 2279 e2bc
000000a0: 40bb 5bbd 9f85 95bc 9946 883d 2c41 dd3c
000000b0: b35e 83bd 0fea ddbc 2a23 8239 5b72 3a3d
000000c0: 4f4b 4e3d 303b a3bc c78f 7a3c c976 433e
000000d0: 7112 70bc 6ab9 5bbc e889 54bd bca6 153e
000000e0: 1280 7b3d b3dc 1a3e 5608 80bc e2ad 15be
000000f0: b6c3 123d 657a 82bd eb4e 98bc 67c5 34bd
-0.0028581102 0.11340796 0.025139097 0.11158418 0.013128834 -0.057092518 -0.00629984 0.12486651
-0.07794838 -0.029298007 0.033688832 0.12463366 0.106700495 -0.054874353 -0.0455038 -0.06195835
-0.07727118 0.11087242 -0.062693246 -0.01986278 0.018360576 0.062305003 -0.07370822 -0.003931833
-0.006495922 -0.043978702 -0.056270543 -0.03417089 -0.021519458 -0.06343066 0.009549072 0.0035589947
-0.016142623 -0.028044837 -0.042205974 -0.01605309 0.086187385 0.19979046 0.094406955 -0.027645651
-0.053645372 -0.018252192 0.066540904 0.027008615 -0.06414547 -0.027089147 0.00024821731 0.045519214
0.05036479 -0.019925684 0.015293068 0.19088282 -0.014652834 -0.013410905 -0.05188933 0.14614385
0.061401434 0.15123253 -0.015628975 -0.14617112 0.035831176 -0.06371001 -0.018592319 -0.04413357

encoder.conv2d_4.weight f4 [64, 64, 4, 4]
00000000: 58c6 68bc f851 a4ba 5023 56bc 4fea 4dbc
00000010: 731c 1fbd aa29 26bd 281a 26bd 555f 5e3c
00000020: 931e 45bb 156e 87bb c3d5 ac3c 522f 6bbc
00000030: 329f 213c 3efe 97bc 9edf 743c 1bd9 d6bc
00000040: 220a 12bc 0ad4 df3c a70f d8bc 8826 cbbc
00000050: 5bfb 23bb 1ce9 7d3c ec1a 7abc d88b eb3b
00000060: 3651 fcbc 409d 51bc 6f92 a43c 41a5 0bbc
00000070: b08c 683c d7ff 1abd 5304 15bc c66e 3e3b
00000080: bde6 7a3c ce5c 853c 563c 20bd 713d 2b3b
00000090: 4c70 4f39 b088 ddbc c3b8 0cbc bf15 8c3c
000000a0: df3d 19bd fc0d 8f3c 1aca cabc bf78 613c
000000b0: b531 773c 68b8 c53c 681a 09bd ebca 963c
000000c0: 8be9 963c c326 3dbc 521a 643a f418 09bd
000000d0: af92 4ebc 559a 27bc b78e 18bc db21 e83b
000000e0: e364 08bd dff2 dfbc 0dc2 36bd 5345 873c
000000f0: 90f7 5ebb 8de5 3fbd 55d2 0abb 7209 6d3c
00000100: 3d2e 053b 298c 5fbb 9c57 01ba 9f6d 0cbd
00000110: 7a6f c9bc 85f3 6ebb fedf 14bd 1fdd 0bbd
00000120: a87f 05bd 0276 a2bb b47c 14bb 2000 2fba
00000130: 32c6 a8bc c6ec 3dbc 4c2c e23c 5251 e13b
00000140: 80b5 4f3a 726d b43c acf0 e8bc 9066 a23b
00000150: def9 97bc 0619 edbc b828 a4bb 0c1e 193c
00000160: aae9 8b3c 10ca abbc 7822 b43b b038 243c
00000170: 8886 f9bc a079 bd3a b42f 1fbc 4e71 a1bc
00000180: f8f4 9dbc ee3e 09bd efec abbc 8609 1bbc
00000190: 7583 98bc 47da b43c f0a6 b5bc 3eb3 b53a
000001a0: 75df d8bb ed11 673b 1967 c73b 9e0d 19bd
000001b0: 88c6 b03b bba7 973c 066a abbc 248e 40bc
000001c0: e012 d4bb d815 9c3c 9e6d 683c e6cc d3bc
000001d0: f71a bebb a802 1fbd cf11 f8bc 5e9e 083b
000001e0: 1c14 073c 12cb 23bc 3363 6cbc 5218 abb9
000001f0: 2468 05bd 2ef7 a9bc 65cc cf3c 899d f9bc
00000200: 7d87 103c 3d3a 83bc 5843 403c 3cea 29bc
00000210: fce5 fc3c f697 c53c 9617 45bc 20f9 3c3c
00000220: 45b1 62bc 3bbb 853c 2b37 08bd d679 9a3c
00000230: fa86 1fbc 8417 9f3c 78f8 df3c 8ca9 8c3c
00000240: 79e0 043d 3730 003c 1b28 0f3d 4000 b9ba
00000250: acb7 ee3b a40b 143c 88c3 9fbc 755f 03bd
00000260: ed6b 5dbc 79c8 943b f863 f3bc c85a c5bc
00000270: 9049 763b b265 ce3c 8857 9eba 985a c4bb
00000280: c074 cfbc 94cb 11bd b16e b0bc 0e20 db3c
00000290: 23db 3fbc bfa6 a1bc c18e 50bc 1d41 933b
000002a0: 1d79 05bd 53e8 a8bc e447 2b3c 8601 f1b9
000002b0: 65b0 febc 6a0b 22bd 398a 893c a56d 6dbc
000002c0: a243 89bc e55e af3c 538c 11bd e799 4a3b
000002d0: 4bef 07bd 3723 15bd 46b7 9abc 8f50 f7bc
000002e0: 055e c4bc d7f0 a6bc 3eb5 6dbc 7357 13bd
000002f0: 0d6d a83c 78d9 febc 33c7 7c3c d578 c53b
00000300: 2c7b 813c 5f4c 67bc f9e5 603c 9f9a 58ba
00000310: d4c9 0e3c fd95 723b 43ec 28bd 0dd4 2fba
00000320: c5b2 873c 1680 2fbd 59fd f1bb defd 63bd
00000330: 507c 91bc e698 28bd 19d1 0dbc 0d74 48bc
00000340: 7851 b43b 751e 073d d233 fc3c 6005 f8ba
00000350: 94f7 8dbc 8f8f ccbc e80b cdbc 57ec e6bb
00000360: cfe4 cbbc ff6f 37bc 4033 f73c 8ef0 8f3b
00000370: 346a 29bc 70e9 99bb e04f efba e8b1 c03c
00000380: 6a35 7cbc fbb5 0d3c db60 b0bc 6094 09bd
00000390: 8d4c 943b 53dc ae3c 6e95 b9bc d46b d2bc
000003a0: 929c 553b 5a28 f6bc c7f3 843b 3431 21bd
000003b0: a302 a8bc 5782 073c ccf1 56bb e354 8cbb
000003c0: 84b9 6fbc 1b2e 4d3c 8f45 8fbc cc25 123c
000003d0: 9832 21bc e33a ec3c 1a10 c5bc a22c e0bc
000003e0: 85ae 8bb9 6d83 9f3c ed9f 923b 6ba7 9b3c
000003f0: f015 cdbb b454 533c 2a4d d8bb c13e c5ba
-0.014207445 -0.0012536636 -0.013069943 -0.012568071 -0.03884549 -0.040567078 -0.04055229 0.013572534
-0.0030078038 -0.004132996 0.021098023 -0.014354544 0.009864615 -0.01855385 0.014945893 -0.02622657
-0.008913549 0.027322788 -0.026374651 -0.024798647 -0.0025021646 0.015497472 -0.015265208 0.0071883015
-0.030800443 -0.012793839 0.020089356 -0.008523286 0.014193699 -0.037841644 -0.009095269 0.0029057725
0.015313801 0.016279604 -0.03912004 0.0026129151 0.00019782892 -0.027042717 -0.0085889725 0.017100213
-0.03741252 0.017462723 -0.024754573 0.013761698 0.015087535 0.024135783 -0.03347245 0.018407306
0.018421909 -0.011544886 0.0008701432 -0.033471063 -0.012608214 -0.010229667 -0.00931137 0.007084114
-0.033299338 -0.02733749 -0.044618655 0.016512549 -0.003402207 -0.046849776 -0.0021182497 0.014467584
0.002032175 -0.0034110642 -0.0004934014 -0.03428423 -0.024589289 -0.0036461067 -0.036346428 -0.034146424
-0.032592446 -0.0049579153 -0.0022657337 -0.0006675739 -0.02060232 -0.011592096 0.027609013 0.006876149
0.0007923469 0.022024844 -0.028435074 0.004956074 -0.018551763 -0.028942596 -0.005009737 0.009345543
0.017079193 -0.020970374 0.005497273 0.010023281 -0.030459657 0.0014455803 -0.009715963 -0.019707348
-0.01928185 -0.03350728 -0.020987002 -0.00946272 -0.018617371 0.022076739 -0.022174329 0.0013862622
-0.006618435 0.0035258487 0.0060852882 -0.037366502 0.0053947605 0.018512597 -0.02092458 -0.011752639
-0.0064719766 0.019053385 0.014186291 -0.02585454 -0.0058015543 -0.038820893 -0.03028193 0.0020846347
0.008244541 -0.009997146 -0.014427948 -0.00032633782 -0.03257002 -0.020747747 0.025366018 -0.030470626
0.008821365 -0.016018981 0.011734806 -0.010370787 0.030871384 0.024120312 -0.012029549 0.011534005
-0.01383621 0.01632463 -0.033255737 0.018856924 -0.009736771 0.019420393 0.027340159 0.01717069
0.032440636 0.007823995 0.034950357 -0.0014114454 0.007285079 0.0090359785 -0.019502416 -0.032073457
-0.013514501 0.0045404998 -0.029710755 -0.02409114 0.0037580468 0.025194976 -0.001208053 -0.005992245
-0.025324225 -0.035594538 -0.021537157 0.026748683 -0.011709961 -0.019732831 -0.012729348 0.004493846
-0.032586206 -0.020618593 0.010454152 -0.00045968237 -0.03108997 -0.039561667 0.016789543 -0.014491473
-0.016755883 0.021407554 -0.035534214 0.0030914487 -0.033187192 -0.036410537 -0.01888622 -0.03018978
-0.023970613 -0.020378513 -0.014508544 -0.03597207 0.020559812 -0.031109557 0.015428352 0.006026367
0.015805803 -0.014117329 0.013726705 -0.00082627864 0.008715112 0.003701567 -0.04124094 -0.0006707318
0.016564736 -0.04284676 -0.0073849377 -0.05566203 -0.017759472 -0.04116144 -0.00865581 -0.0122347
0.005502876 0.03298803 0.030786429 -0.00189225 -0.017329969 -0.024970798 -0.025030091 -0.007047217
-0.024889378 -0.011196136 0.030175805 0.00439269 -0.010340262 -0.0046970174 -0.0018258058 0.023522332
-0.015393594 0.008649345 -0.02153056 -0.033588767 0.004525727 0.021345293 -0.022654261 -0.025686182
0.0032594544 -0.030048538 0.004057381 -0.039353564 -0.02050907 0.0082708215 -0.003279793 -0.00428258
-0.014631633 0.012523199 -0.017489223 0.008920144 -0.009838723 0.028836673 -0.02405553 -0.027365033
-0.00026642173 0.019471848 0.004474631 0.01900073 -0.0062587187 0.012898613 -0.0066009955 -0.0015048609

encoder.conv2d_4.bias f4 [64]
00000000: 72e9 21bd c3d3 933e 15bd 153f 510c 84bc
00000010: 85a1 d6bc 745a d13e 68db a03e 6df6 bfbb
00000020: 2f32 f93d 4e64 2fbb fffd 4fbd 8c0d 61bc
00000030: edb8 483c ecb7 32bb da6a 0bbd 6b41 133f
00000040: 1ffc 11bd 0fed c9bc b018 c8bc 2c3c edbc
00000050: 1c4d e4bc a99d 91bc 6f6f fc3d 7bb7 e73d
00000060: c6dc 5f3b e5cd 34bd b6be 4dbd 9a5b 2fbd
00000070: d3fd a4bd cdb2 b23e 64e8 35bc 4778 0c3f
00000080: 45ee e8bc 6b6e 4cbd 88fd 823e bf56 393e
00000090: b8d3 afbc 117e 41bd 55c8 36be 1a7f 2a3f
000000a0: a8bb 39bd 9827 a33e 1829 60bd a18d c73e
000000b0: da5d aebc 8ce9 bcbc 498d cd3e fea0 85bd
000000c0: b796 8d3b 7552 27bc b346 89bd ab92 38bd
000000d0: 8424 04be a2eb 40bb e813 f93e 663f 0dbd
000000e0: 2e13 8bbc 3e8d 86bd d278 c6bc ab5f 69bd
000000f0: e33a 09bd 708a 51bd 1888 d0bb 7ae2 9dbc
-0.03952927 0.288725 0.5849164 -0.016119154 -0.026200065 0.40889323 0.31417394 -0.0058582337
0.12167775 -0.0026762667 -0.05077934 -0.01373614 0.012251121 -0.002727027 -0.03403745 0.57521695
-0.035640832 -0.024649171 -0.024425834 -0.028959356 -0.0278688 -0.017775374 0.12325942 0.11314293
0.003415869 -0.04414167 -0.050230704 -0.042811967 -0.08056226 0.3490204 -0.0111027695 0.5487103
-0.028433928 -0.04990999 0.25584054 0.18099497 -0.02146326 -0.047239367 -0.17849858 0.6660019
-0.04534498 0.31866145 -0.05472669 0.38975242 -0.021284986 -0.023060583 0.40146855 -0.065248474
0.004320945 -0.01021253 -0.06702938 -0.04506175 -0.12904555 -0.0029437323 0.48648 -0.03448429
-0.016976919 -0.065699086 -0.024227533 -0.056976 -0.033503424 -0.051157415 -0.00636388 -0.019273032

encoder.linear.weight f4 [20, 256]
00000000: 3f5f 673c 1180 a53c 0b3b 373d ffb4 22bc
00000010: 911d 793e 6da7 e23d 9779 71bd 191c 49be
00000020: 86ab 9e3d 7853 5ebd c39a 16be a103 a239
00000030: 3331 963c d030 cebc 6830 a3bc bcbb d1bc
00000040: f14f 893c 4aad 433d 7378 e53c 9dd7 c4bc
00000050: 64a6 223d 7c56 783e 3343 d0bd 3c55 ebbc
00000060: fe39 3e3d 459e 483e c2cb 163b be13 183e
00000070: b39b c2bc 8daf c3bc de3e 8f3a e286 1fbd
00000080: 1a70 143e 082e 16be 4d46 23bd 312f ad3c
00000090: 548a 4e3d 4831 adbc b7dd 843d 52d8 bfbc
000000a0: 2eb5 8e3c a49b 34bd 61e5 bdbc e7e7 ba3c
000000b0: 6f69 a83c c9e6 103d d599 5e3d 62e4 57bc
000000c0: 05db 373d 338e d7bc ee1e c83b 8c44 4f3b
000000d0: 2596 433d e8ea 643d fde1 e0bc 77ab efbc
000000e0: 854b 12bd 311e e43c 342f 0d3d b289 09bb
000000f0: 5e8e f3be ece7 0d3c 805e 573b 73f0 623e
00000100: e8dc 473c 2239 803b e3db 65bc 2d7c b13c
00000110: fab0 15bd aa0c 573d effb 5c3c 9047 36bd
00000120: 413e 963e 90da d6bd ff2f ebbc 5b26 ba3d
00000130: 9a41 3d3d 8982 0c3d 068b 61bc 658f 713d
00000140: f9ea a53c ca02 503c bb94 14bd bc56 ea3c
00000150: 388a 9fbc 9d1f 40bc a810 11bd b048 3e3c
00000160: 46a5 953d 66db 51be 68b7 3d3d 3e7b 96bd
00000170: d0fe 08ba 370f 333e 6ec0 9abd 4c66 a9bd
00000180: e7dd 59be 51b9 283f 38b0 ecbd c2f3 b5bd
00000190: 6eb4 fabc 381c 4a3d 42ab 3cbd 4630 54bd
000001a0: 6487 36bd 7fa0 57bc 3722 7c3d 89ca c2bc
000001b0: 2e8f 43bc 8cb8 ecbc 04a6 3d3d 5afb 693d
000001c0: 4ec8 8abe 2a66 0ebe 9867 a7bc 88bc b93c
000001d0: 14d6 fb3c c722 503d 385d d93a e9ae b9bc
000001e0: f190 1a3b 1271 6bbd 68e4 0cbd b5c6 b83c
000001f0: bbf3 68be 749e 91bd 9e21 3bbd 6e04 a03d
00000200: 70fe e3bc 2322 3ebd 79b4 e53c 6ebf f2bc
00000210: 10e3 c63b 045b 273d d898 113d 7094 5dbc
00000220: ccce 233d 34b9 893e a923 e8bb 282c c4be
00000230: 42b1 9bbe 2e37 83bc faf3 72bb 4202 873d
00000240: 422b 8abd 122f 003d c0d8 213d 906d b9bc
00000250: 8883 393a bdab 713d dd6a bd3b f14d 06bd
00000260: ada8 c23d 98cf f83d c738 eebe e743 9abe
00000270: 4d25 023e 43c4 2ebe 0974 433e 1de4 023d
00000280: d6ef 713c 7464 013d a055 f63c dc1b 0f3c
00000290: 84bb d3bd a56c 323d 8bba cabd fe8a 0bbd
000002a0: d2a8 343d aafb 42bd d880 1a3d 6cfd e4bc
000002b0: 019b 403e 3ecc 903e a3d1 efbd 2fef f13d
000002c0: ad48 7b3a 87ed 5ebd e4cf 553d 8f82 b5bc
000002d0: 9323 743d 005a 553a 4a24 8fbd 1434 1fbd
000002e0: 77f6 89bc a054 833e bb32 3ebd 7147 6f3d
000002f0: 9275 84bd ad44 59bd a651 933c f760 98bb
00000300: c96d 23bd 7ef2 283d 65ef 88bc 3317 cfbc
00000310: 74ce 4bbd 3efe 07bd c806 14bc 6f3a 3cbd
00000320: deb8 f93c bfc6 ddbc e184 583d 2893 f23c
00000330: 4888 b9bc 4f1a 3b3c c895 f9bc 2100 64bd
00000340: 348d 8e3a c6ac e53d c352 afbd 7f10 c7bd
00000350: a7ea 273d d7fe 4cbc bfff 8b3d 10e7 043c
00000360: 0fbb f93d 3ffc f0bd 6e6e 65bc 8476 fcbd
00000370: 9ea1 4cbc d7c7 143d 97c1 fb3c e50a b03b
00000380: 7cd8 d2bc cd17 8abc 48af 543c 2fea 1fbd
00000390: e618 1abd 2593 1bbd 7883 bbbc 3cfa ab3c
000003a0: cd24 34bd ca10 9d3d 8fcf 613a 925a 2cbd
000003b0: 4b79 dabc cbd0 293d d01f 69bd 32b9 9cbc
000003c0: 6043 4e3d 008c c638 b382 40bd 9d4a d2bb
000003d0: e868 42bd a875 36bd 6218 fa3b 595c 57bc
000003e0: 14cb c13c 44e2 efbc 074c 6b3d 70b3 4f3d
000003f0: 7ba3 69bd 6045 33bd 03a0 33bc 56cd 67bd
0.0141218295 0.020202668 0.044734042 -0.009930848 0.24327685 0.1106709 -0.058953848 -0.19639625
0.07747559 -0.05427882 -0.14707474 0.00030901752 0.018334007 -0.02516976 -0.019920543 -0.025602214
0.016761752 0.047772683 0.028011536 -0.024028594 0.039709464 0.24251741 -0.10169067 -0.028727166
0.046442024 0.19591625 0.0023009633 0.14851281 -0.023755884 -0.02388742 0.001092877 -0.038946994
0.14495888 -0.14665997 -0.039861966 0.021140667 0.05042489 -0.021141663 0.06487601 -0.02341858
0.017420378 -0.044093743 -0.023180665 0.022815658 0.020558087 0.035376344 0.054345924 -0.013177009
0.044886608 -0.026312923 0.0061072027 0.003162655 0.04775061 0.055888087 -0.02745151 -0.029256565
-0.035716552 0.027846428 0.034468845 -0.0020986614 -0.47569555 0.0086612515 0.0032862723 0.22162037
0.012198664 0.0039130608 -0.014029476 0.021665657 -0.03654573 0.05250231 0.0134878 -0.04450184
0.2934437 -0.10490906 -0.02870941 0.09089347 0.04620514 0.034304176 -0.013766056 0.058974642
0.020253645 0.012695977 -0.036274653 0.028605811 -0.019475088 -0.011726287 -0.035416275 0.01161401
0.07306914 -0.2049385 0.046317488 -0.07347725 -0.00052259583 0.17486273 -0.07556234 -0.08271465
-0.21276055 0.6590777 -0.115570486 -0.08884384 -0.030603614 0.049343318 -0.04606176 -0.05180385
-0.044562712 -0.013160824 0.061556067 -0.023778217 -0.011935992 -0.028896593 0.046300903 0.057124473
-0.27105945 -0.1390616 -0.02043514 0.022672907 0.030741729 0.050814416 0.0016583567 -0.022666411
0.0023584927 -0.05748088 -0.034397513 0.022555688 -0.22749226 -0.07110301 -0.045686357 0.07813345
-0.027831286 -0.046419274 0.028040158 -0.029632296 0.0060695484 0.040858284 0.035546154 -0.01352416
0.03999214 0.2689911 -0.007084329 -0.3831494 -0.30408674 -0.016017523 -0.003707169 0.065922275
-0.06746532 0.03129489 0.03951335 -0.022635251 0.00070767896 0.059001673 0.0057805614 -0.032789174
0.095048286 0.1214897 -0.46527693 -0.3012993 0.12709542 -0.17067055 0.19087233 0.031955827
0.014766654 0.03158994 0.030070126 0.00873467 -0.103385 0.043560643 -0.098988615 -0.0340681
0.044106312 -0.047603287 0.03772053 -0.027952872 0.1880913 0.28280824 -0.11709907 0.11813199
0.00095857197 -0.054425742 0.052200213 -0.022156982 0.05960424 0.0008138716 -0.069893435 -0.038868025
-0.016841156 0.256505 -0.0464351 0.05841774 -0.06467737 -0.05304401 0.017983269 -0.004650231
-0.03989962 0.041246884 -0.016715715 -0.025279617 -0.049757436 -0.03320145 -0.00903482 -0.045954164
0.03048366 -0.027072309 0.0528611 0.029611185 -0.022647992 0.011419847 -0.03046693 -0.055664185
0.0010875822 0.112145945 -0.085607074 -0.09719943 0.040995266 -0.01251193 0.06835889 0.00811173
0.12193882 -0.11766862 -0.014003379 -0.123272926 -0.012489704 0.036323395 0.03073196 0.0053723925
-0.025737993 -0.016857052 0.012981243 -0.039041694 -0.0376214 -0.037982125 -0.022889838 0.020993344
-0.04398041 0.07669218 0.00086139975 -0.042078562 -0.026669165 0.041458886 -0.056915104 -0.019131277
0.050357223 9.467453e-05 -0.046999644 -0.006417586 -0.047463328 -0.0445458 0.007632301 -0.013144576
0.023656406 -0.029282697 0.057445552 0.050708234 -0.057040673 -0.043767333 -0.010963443 -0.056592308

encoder.linear.bias f4 [20]
00000000: f8ec d93d bcca 1abe 1ac0 523e e165 1fbd
00000010: 2cd0 96be a810 f53e 3f43 9e3b 0903 b73d
00000020: f751 5d3e eeb0 1f3f d9df 7dbf e4f1 bcbe
00000030: fcd1 b4bf d6fb 91be 2269 e9be 85e0 13bf
00000040: b1c2 4a3c 69e2 a7bf db55 9c3d 60f3 6abf
0.10640901 -0.151164 0.20581093 -0.03891552 -0.29455698 0.4786427 0.0048297937 0.08936126
0.21613298 0.6237935 -0.9916969 -0.36903298 -1.4126582 -0.28512448 -0.45588022 -0.57764465
0.01237552 -1.311597 0.07633563 -0.9177761

decoder.linear.weight f4 [256, 10]
00000000: fa0c e83c 7236 c8bd 137e 3bbf cf91 583e
00000010: ee41 f8bd 6e87 123f 9676 ab3a 73c6 8abe
00000020: c1db 1dbc 09d0 993d a4f7 4b3d 9a40 26be
00000030: 2f49 fd3e 824a 44be 1795 d33e 9135 cc3d
00000040: 44f4 93bb eaf2 d03e f7ff 3dbd 3564 4e3e
00000050: 6897 7ebd 243f d93d f5db 08bf d169 413d
00000060: b053 1abe 8f29 20be 52f9 99bc 660c 7a3f
00000070: a436 23bd fe62 97be 41b9 eebc 222b 613e
00000080: 35fe 573e 065f 94be 3d70 2bbd 3ff2 6f3e
00000090: c334 923a 40be 3cbf 0fb1 8cbc f9f0 a83d
000000a0: 6dd0 a83e e842 5dbe 9cf6 89be 3b65 15be
000000b0: 529f 38bc 79c8 833e a7ab 903c bcc4 323d
000000c0: 1a35 653d 4d6b 403e d6f5 053f dfcb 2cbe
000000d0: 3158 133e d3ee f43d 33a2 903e 5f71 57be
000000e0: a257 8f3c 8e74 79bf 2ca9 d5bb eb2a 193d
000000f0: 0fa0 a23e a860 bd3e 0923 37bf ff9d 033c
00000100: 723d 513e 5b02 1a3f 3559 623b 0948 f0bd
00000110: 9702 fabb 27e7 60be 5d58 70be 1522 ccbe
00000120: 3fcf 57bf 4270 113e ed47 4f3e eed9 93be
00000130: 5b7f 833a 5c20 c13d c601 56bd 51be c7bd
00000140: 16cc a43e 8314 dfbc e778 8e3c b41f 143e
00000150: 0029 993e 37ba 023f ef4b 82bc d4e7 babe
00000160: 975e 153d 46fc e6be 1a7b 11be e5b2 e73d
00000170: d55c 7abe b60c 2b3e 8d6c e63d f2a3 a4be
00000180: bf5b 29bc f9c8 ce3d ae80 e4bc 7ba2 ee3d
00000190: e6a8 263e 17dd 86be 318e bebc fb47 a43c
000001a0: aca4 b83e b2be 653e 1fd2 fe3a 3f64 d8bd
000001b0: fb3a c93d 6ec0 c2be 425f 8bbe a0b4 99be
000001c0: 9e50 9bbf df7e 8bbd a652 fa3d 6f95 173f
000001d0: b47b f2bb 9984 533d dbbe a9bc 31b3 9f3e
000001e0: 8abe 95bd 9b6c 74be 3643 f7bd e694 813c
000001f0: a45c b33d 61e1 e83e 4a5f c63c eee4 353e
00000200: 0e04 f0bc ecf6 863e 931e 44bf e042 a4bb
00000210: 59d3 5abe fcab 94bb f792 79bd a16b 28bd
00000220: f2db 98bb 8009 b23e b655 61bc 3a8d 123e
00000230: 3850 cfbd 3815 8e3d d12f a4bc eb4f cdbd
00000240: ad12 1c3d 6399 04bd 2ab9 1dbc c8d4 a9bf
00000250: 4fbb e23c 90fc 65be 1146 afbc 6080 923e
00000260: c912 21bf 425c b2bd 54c0 60be 1588 1cbe
00000270: a469 edbb 0b11 e73d 8ce2 febc 3596 99be
00000280: 7097 7ebe dce4 00be 8c2b 053f f127 703e
00000290: 7bbd fc3d 0d11 a93e 31e0 62bb 6fe4 92bc
000002a0: 93db e5bd 7bc3 ad3c 80a5 30be 67b0 cfbd
000002b0: 375a 2c3d 4e23 e53d ed0b 043f c9e6 a9be
000002c0: 73df e2ba 5f45 943e 0f6b 38bd 3578 97bc
000002d0: 732f 883e a9a7 033e e135 843f eafb 853a
000002e0: 768a 393e 66e6 f0bd af07 0b3c 7bc5 933d
000002f0: 8b48 94bb 55f1 e2be b7d2 3dbc 8440 dfbe
00000300: fd52 443f 370c 71be aa3c 853d 8c5a 5ebe
00000310: 6718 43bc 88a2 a5bd 704f 953d 41fd cf3d
00000320: 296f 9ebe 282f b2be d376 69bd 3090 29bf
00000330: 47c3 143e 216f 4abf 3aaa 8f3c 8cd1 e43d
00000340: e327 af3c c970 dbbe 2b45 1e3f f0ce 42be
00000350: 06cd 083f ab47 873d ec2c 243e dcb2 923e
00000360: 1b98 feb9 5a39 8bbd 3b4f 8ebc b7da a03c
00000370: f085 cf3e dea2 29be c807 5f3b ef1c 26be
00000380: e54d 91bd 28ba 1bbe 62a1 0ebc e8c3 64be
00000390: 9475 5ebd 29e4 abbe f1a1 673e 110e 893d
000003a0: abd1 463f dc80 77be b485 a7bd d7c8 8b3d
000003b0: 88b3 203c da06 52be 92f7 033e 610a a3bd
000003c0: 09bc 893e 7854 603d 11d6 293f 8a95 36bd
000003d0: 9e94 77bc c821 183f 4553 91bc 3d78 a5bd
000003e0: 2eec 0f3d b639 b73c 15a4 cf3e 11dd b9bd
000003f0: 9006 7dbe 94a9 be3e 5241 c3bd d409 d7be
0.0283265 -0.097760096 -0.7323925 0.21149372 -0.1212195 0.572379 0.0013081606 -0.2710453
-0.009634913 0.07510383 0.049796715 -0.16235581 0.49469897 -0.19169047 0.41324684 0.099711545
-0.0045152027 0.4081033 -0.046386685 0.20155413 -0.06215611 0.10607746 -0.5346063 0.047220055
-0.15070987 -0.15640853 -0.018795643 0.9767517 -0.03984703 -0.29567713 -0.02914107 0.2198911
0.21093066 -0.28978747 -0.041855086 0.23432253 0.001115464 -0.737278 -0.017174272 0.08249087
0.32971516 -0.21607554 -0.2694596 -0.14589398 -0.011268454 0.25738886 0.017659975 0.04364465
0.055958845 0.18790932 0.5232824 -0.16874646 0.14389111 0.119596146 0.28248748 -0.21039341
0.017497841 -0.97443473 -0.006520411 0.037394445 0.3176274 0.36987805 -0.71537834 0.008033275
0.20433596 0.60159844 0.0034538035 -0.117324896 -0.0076297033 -0.21963178 -0.23471208 -0.39869753
-0.8430061 0.14202979 0.20242281 -0.28877205 0.0010032462 0.0943 -0.052247785 -0.09753097
0.32186955 -0.02723146 0.017391635 0.14465219 0.29914093 0.5106539 -0.015905349 -0.36504996
0.03646716 -0.45114344 -0.14207116 0.11313418 -0.24449475 0.16704068 0.11251173 -0.3215633
-0.010336815 0.10096926 -0.02789339 0.116520844 0.16275367 -0.26340553 -0.023261162 0.020053854
0.36063135 0.22436026 0.0019441283 -0.105659954 0.09825703 -0.38037437 -0.27221113 -0.30020618
-1.2133977 -0.06811308 0.12222795 0.5921239 -0.0074000005 0.051640127 -0.02072089 0.311914
-0.07311733 -0.23869555 -0.12073366 0.01581807 0.08757904 0.4548445 0.02421536 0.17763111
-0.029298808 0.2636026 -0.7660915 -0.005012855 -0.21369685 -0.0045371037 -0.060931172 -0.041118268
-0.0046648914 0.34772873 -0.013753345 0.14311686 -0.101227224 0.06937641 -0.020042332 -0.10025009
0.038103748 -0.032372843 -0.009626666 -1.3268061 0.027677206 -0.22459626 -0.021395715 0.28613567
-0.6291929 -0.08709003 -0.21948367 -0.15286286 -0.0072452594 0.112825476 -0.031113885 -0.2999741
-0.24862456 -0.12587303 0.5201957 0.23452736 0.12340828 0.3302082 -0.0034618492 -0.017931191
-0.11223521 0.021211376 -0.17250633 -0.10141068 0.042078223 0.111883745 0.515807 -0.33183888
-0.0017309025 0.28959176 -0.045023974 -0.018489936 0.265987 0.12856926 1.0328943 0.0010222171
0.18119225 -0.11762695 0.008485719 0.07215401 -0.0045252494 -0.44324747 -0.011585883 -0.4360391
0.7668913 -0.23539816 0.065057114 -0.21714228 -0.011907673 -0.08087641 0.07290542 0.10155726
-0.30944183 -0.34801602 -0.056998085 -0.6623564 0.14527617 -0.7907582 0.017537225 0.111727804
0.021381324 -0.42859486 0.6182429 -0.19024253 0.5343784 0.066054665 0.16032761 0.28652084
-0.00048559983 -0.06798048 -0.017371764 0.019635541 0.40531874 -0.16566035 0.0034031738 -0.16221975
-0.07094935 -0.15207732 -0.008705469 -0.22340357 -0.05431135 -0.3357251 0.2262037 0.06692136
0.7766368 -0.2417025 -0.08179799 0.068254165 0.009808429 -0.20510426 0.1288741 -0.07960964
0.26901272 0.054768056 0.66342264 -0.044576205 -0.015111117 0.59426546 -0.017739901 -0.08079574
0.035137348 0.022366386 0.40554872 -0.09075368 -0.24709535 0.37238753 -0.09533943 -0.41999686

decoder.linear.bias f4 [256]
00000000: fa52 5fbe c247 9abe 1957 e7bd 51f5 d5bc
00000010: 497b 733d 75ca 4dbe 4792 98be cf63 313f
00000020: 83ad 4cbf 66aa 3d3f 9833 793e 23b6 08bf
00000030: 8f84 13bf 2e3a fdbe f19f 9a3e 775b a43f
00000040: 2f5a 4cbf 508a 55bf af3d a1bf d59b 84bf
00000050: 5c9e 27bf 4570 7fbf 7906 4a3e 1551 7dbf
00000060: e143 78bf 4f5b f13d ee7d 22be abe6 403e
00000070: 3eaa 16bf 569a b2be 6a04 1fbf 7387 f53e
00000080: cd45 503e 01f8 4bbf 8b73 1cbf e0ef bb3d
00000090: dc5d 2cbd 8286 5dbd 8cc5 81be 2f7d 973e
000000a0: 8dbe 013e 2e05 3f3f 98a4 73bf 618c 8dbe
000000b0: 152f d13d 8baf 41bf f41e e1be 1c33 8ebf
000000c0: 34a1 e43c ba65 793e bc0a 83bd 0fce 163f
000000d0: 99e5 98bf f499 56be 6aad 06bf d587 ac3e
000000e0: be54 e6be 5605 1d3e 7edc 323e 574e e0be
000000f0: 541f bdbf 8c0f 1a3f 91be c53e 52a0 c73e
00000100: 2f63 91bf 5b35 47bf 05ca 69be cd48 953e
00000110: 4539 08be 0b1f 60bf dc3e 20bf e925 20be
00000120: 94e2 3abf 97e3 4e3e 1e76 30bf 17ab 0d3f
00000130: 1888 333f a600 32bf 7786 a13d 1450 69bf
00000140: 4f66 9cbf 1864 03be eb70 4abf 0d0e 883e
00000150: 6686 06bf 0a0c 6a3f 92b7 4abf ddae 89be
00000160: d0a9 60bf 61ca 15bd 0668 3fbf bee6 3cbf
00000170: 701d e0be deeb 75bc da57 be3e a0b2 813f
00000180: d692 013f a7d3 4f3e ed3c 643e b360 413e
00000190: 6b2b 8dbf cbaf 8ebe 9f4a 9b3c e5b9 47bf
000001a0: 3684 d4be f592 73be 9890 883f cf4d c33e
000001b0: 653b bf3e feb5 3dbf ab20 0dbe bcf9 0dbf
000001c0: 23f5 173f ca9d 9abd 82af f3bc 649a a33e
000001d0: 4767 2a3d 0422 99be f2e2 6dbd d4de dfbf
000001e0: 826a 8d3e 52d9 31be f7f9 943e 0f91 50bf
000001f0: 3650 a5be ad49 2dbf 3011 dabe 2a61 26bf
00000200: 23ee 8ebd 3161 fb3d 18f5 28bf c74f bdbf
00000210: 585e 2bbf e688 aebd 77d9 ae3e bc95 25bf
00000220: 6d24 ea3e 5349 153f cc72 9fbd a6c4 6abf
00000230: 1993 ad3e 2fba 8bbf 87e6 873f 5848 b7bf
00000240: 37fd ccbe 70ad 4fbf e656 0b3e a06d 32bf
00000250: 5bb7 8fbd 5038 d43e b721 babf 58d7 15bf
00000260: 12f2 633e d6c2 e83e 988b 2c3c 7469 c3be
00000270: 4609 033e 17c1 c1bf 624b 1d3e 5d56 b8bc
00000280: ed09 b33e b2ae 393f b1f1 51bf 72f0 f1be
00000290: 05c6 3cbf eefe a8bf f2f7 e9be a29c 6e3e
000002a0: 95d2 243f 9571 903e df3e 1b3f 6bf9 00bf
000002b0: 8f30 373d acbe 973e aaef 7d3f 10d6 013e
000002c0: a547 6ebe c8fc 4a3f daa3 f2bd b1b8 15bf
000002d0: 88b9 233f e1b6 32bf f496 b4be 11c5 1a3d
000002e0: b9c0 023f 236b 8dbe cd31 e5be efe5 d1be
000002f0: bfdf 7ebd 0571 823d 1885 b63e 09fc 113e
00000300: 5dae b7bc 674f babe 857b 5cbf 81b6 05bf
00000310: 975b 453f 616d c4bd 5f8c 17bf 2c6c 49bf
00000320: dc02 a83e d5c1 33bf 71b0 34be 8146 54be
00000330: 099a 00bf 7a41 32be 46e9 acbd fa61 703e
00000340: 6f5e 383e e17e ccbe c0b9 a1bf d70e 153f
00000350: 1e8e 5cbf cd06 4dbf b222 d1be 591d 7ebf
00000360: 345a b13e db79 3fbe dae9 71bf 67c2 02bf
00000370: d6f8 13be dd1a b03e b559 2abf fb08 9c3d
00000380: bf9c 3bbf 8a72 4ebf 0d93 89bf b60e 5fbf
00000390: c5e1 bd3e 605f 1c3f 51ea 12bf 4d79 32bf
000003a0: 19a6 40be cdcc 803e 8729 60bf a384 86be
000003b0: 472d 5dbf 2399 2dbf 9412 833e 8049 a03e
000003c0: 2455 243e 939a 83bf 636c 0a3f 5a15 80bf
000003d0: 76f1 61bf b9e6 9ebe 3806 92bf 8f2d 92bf
000003e0: db8c 87be 6633 d6be a6b6 2cbf ec04 b83e
000003f0: bea8 15be 2b64 fabe 882f 553e 30fb 33bf
-0.21808997 -0.30132872 -0.112959094 -0.026117953 0.059443746 -0.20096762 -0.297991 0.6929292
-0.7995226 0.7408813 0.24336088 -0.5340292 -0.57624143 -0.4945845 0.3020015 1.2840413
-0.7982511 -0.83414173 -1.2596949 -1.0360056 -0.6547601 -0.99780685 0.19729032 -0.98951846
-0.96978575 0.11784994 -0.15868351 0.18837993 -0.5885352 -0.34883374 -0.6211611 0.47954902
0.20339127 -0.796753 -0.61113805 0.09176612 -0.0420817 -0.054083355 -0.2534603 0.29587695
0.12670346 0.7461728 -0.95173025 -0.27646163 0.10214058 -0.7565848 -0.43968928 -1.1109347
0.027908899 0.24355212 -0.06398532 0.5890817 -1.1945068 -0.20957166 -0.5260836 0.33697382
-0.44986528 0.15334067 0.17466924 -0.4380977 -1.4775186 0.6017997 0.38621953 0.38989502
-1.1358393 -0.7781579 -0.2283097 0.29157105 -0.13303097 -0.8754737 -0.62595916 -0.15639462
-0.7300198 0.20204006 -0.6893023 0.5533919 0.7012954 -0.6953224 0.07886975 -0.91137815
-1.2218722 -0.12831151 -0.7907855 0.2657322 -0.52548826 0.9142462 -0.79186356 -0.26891223
-0.87759113 -0.036569957 -0.747681 -0.73789585 -0.4377246 -0.015009848 0.371764 1.0132637
0.5061468 0.20295583 0.22288866 0.18884544 -1.1028875 -0.27868494 0.01895648 -0.7801803
-0.4150712 -0.23786528 1.0669127 0.381453 0.37350002 -0.74105823 -0.13781993 -0.5545919
0.59358424 -0.07549627 -0.029746775 0.31953728 0.0416024 -0.29908764 -0.05807776 -1.7489877
0.27620322 -0.17368057 0.29096958 -0.8147134 -0.3228776 -0.67690545 -0.42591238 -0.6499201
-0.06979015 0.12274397 -0.65998983 -1.4789971 -0.6694083 -0.08522205 0.34150288 -0.646816
0.45730916 0.5831501 -0.07785568 -0.9170631 0.3390129 -1.0916194 1.0617226 -1.4318953
-0.40036938 -0.8112402 0.13607368 -0.69698524 -0.07017394 0.41449213 -1.4541539 -0.58531713
0.22260311 0.45461148 0.010531329 -0.38166392 0.12796506 -1.5137051 0.15360788 -0.022502119
0.3496851 0.7253219 -0.82009417 -0.47253758 -0.73739654 -1.3202798 -0.4569698 0.23301938
0.6438382 0.28211656 0.6064281 -0.5038058 0.044724043 0.2963766 0.99193823 0.12679315
-0.23269518 0.79291964 -0.118476585 -0.5848494 0.63954973 -0.698103 -0.35271418 0.037785593
0.5107532 -0.276208 -0.44764557 -0.40995738 -0.0622251 0.06369213 0.35648417 0.142563
-0.02242201 -0.36388704 -0.86125976 -0.52231604 0.7709288 -0.09591175 -0.59198564 -0.7868068
0.32814682 -0.7021764 -0.17645432 -0.2073002 -0.5023504 -0.1740779 -0.08442931 0.23474875
0.18004774 -0.3994055 -1.2634811 0.5822577 -0.86154354 -0.800885 -0.40846783 -0.9926353
0.34639132 -0.18698828 -0.94497454 -0.51077884 -0.14450392 0.34395495 -0.6654313 0.076189004
-0.7328605 -0.8064352 -1.0748001 -0.8713182 0.3708631 0.6108303 -0.5738879 -0.6971634
-0.18813361 0.2515625 -0.87563366 -0.2627307 -0.8639721 -0.67811793 0.2560011 0.31306076
0.16048104 -1.0281547 0.54071635 -1.0006516 -0.88259065 -0.31035402 -1.1408148 -1.1420153
-0.26474652 -0.4183609 -0.674662 0.35941255 -0.14615151 -0.48904547 0.20818913 -0.70305157
