runs/dSprites/model-500.pt (torch_old, 958162 bytes, 19 tensors)

encoder.conv2d_1.weight f4 [32, 1, 4, 4]
00000000: 4180 39bd a6f1 e8bd f447 edbd 78e7 d0bd
00000010: 5d26 adbb a6ea e3bc 2261 00be e4cc 13bf
00000020: 73e2 3c3d 974b 1f3d 993f d4bc 38e9 04be
00000030: 76f0 f1b9 272a f53b 7e78 f83a 049d 7abc
00000040: f70d aabd 92b8 2dbe 3aa2 b4be 7e29 95bc
00000050: 762e 9cbd 9f4c 00be 5e6a fbbd 6ccb 093e
00000060: 278c 503d 1e3f 13be 4fcd f9bd c6f3 dabb
00000070: b4d9 7abd 914e 5ebe 66d2 8dbd 8d0e 4ebe
00000080: ba84 6a3d fd5f a83d b5d8 a33d 1c0f f43c
00000090: 60cc f73c a8ba 2a3b 059b 1dbc 49ca 3cbc
000000a0: 9ec2 b7bc b67a 4ebe d0f1 22be 8967 75be
000000b0: d4a3 75be 39a0 ffbd 5343 e33c 36b2 8abc
000000c0: 14a8 f63c 0c14 3fbd ae4f 5c3e 84d1 643d
000000d0: d252 8cbc b88a 03be 9915 26bb 0e92 433d
000000e0: 16a5 a43e 24b2 cdbd fca4 c9be ae47 bfbc
000000f0: 1736 cb3d 940b 733d 3968 7e3d bbba d73c
00000100: cc09 19bc 8f12 003d 13de 013c c9db 4dbd
00000110: c84c da39 ece7 b73d 43df 03bd 589e 45be
00000120: 5a0f a43c b969 aa3d c820 babe 7432 3dbd
00000130: 8747 2d3c 7b64 d63c 9f88 06bd e958 6ebe
00000140: 5906 d1bd e728 24bd cb17 82ba 9f8a 003d
00000150: d3e2 a0bd 390f 31be f8fa 42bc e68c fd3d
00000160: 9a14 b5bd 073e d1be afdf 44bc b730 323d
00000170: 9e83 66bd 5cad fbbd 0b19 ddbc 6229 ed3b
00000180: 57eb 6abe e9d2 acbd 96b2 02be a55a 16bc
00000190: e566 ee3d 8400 37be acb2 babd aaa1 6a3c
000001a0: 672d a3be 2a38 dcbd c987 f33d ada3 47bc
000001b0: 9a41 d7bd bb65 8cbe e459 3dbe 9ce0 f6ba
000001c0: f13e bf3e e12a 0f3d 7ddb 80bd 21f4 a6be
000001d0: 9f1e 89bd 01b6 86bd b657 20be 44bf 7b3d
000001e0: 5fbf 1bbd b797 67bd f363 bfbd 157c 603d
000001f0: c9c0 e33d 8c3e aa3d bd10 1f3d c97a ed3d
00000200: 44dd 23bd 23ce 9fbd 3079 14bd a74c 01bd
00000210: 34b3 a8bc 25fe f5bc 87d2 abbc 0e6f c5bc
00000220: 9c6b 8a3c e308 fb3c 7b0e ff3c d254 3e3c
00000230: 5055 5d3c 6eeb db3c a139 0c3d f697 a23c
00000240: d35c ad3b 82b6 963d 0cdc 0abe 30b1 19bd
00000250: 946c 5ebd ffa3 d13c 74d0 98bd 1010 b73c
00000260: bff1 a33d 76b2 24be 1e80 2ebe 6e2b 77be
00000270: a20f 66be 8a4b cd3d c0bb 8dbd c8f3 e3bc
00000280: 4379 3ebe 0a3c 78bd 657e b8bd bdd1 54bd
00000290: 3793 49be c70b 4bbd 65ef debb f020 8fbd
000002a0: 38e5 a83b 6204 4bbe 231d e1bd ff98 cfbe
000002b0: 9622 fbbd b65e b83d f5f6 19be 7a56 9abd
000002c0: 60b4 bb3b f9af 7a3c 152c c43c 0e74 863c
000002d0: 8d53 243b 556a 7b3c 176d 133d 88c3 cc3c
000002e0: ae35 5a3b 5e8d b93b cc2e 863c 5e31 a43c
000002f0: 00ca f83b fc63 963b 479d ff3a a4c7 843b
00000300: fd91 f6bc 4797 afbe 3fb8 4fbe 7f12 75bd
00000310: 66b2 a5bb fb8f 28bc a41b 70be 6233 0e3b
00000320: 006f f93d 766c 323b 0f17 a1be 33fa fc3d
00000330: 7b81 273e 6bdc c4bd 5b80 833a 4aa1 793d
00000340: 5de1 af3c 64f3 033d f176 f63a 0461 003d
00000350: 742d f43c 0f81 ff3c c00d a83c f3b5 0e3d
00000360: bb0a fd3b 846e 953a d333 e0bc 4ad4 2f3c
00000370: 0457 fbbc 2da2 82bd 3e20 89be 4550 19bd
00000380: f365 0cbe 8151 b7bd 7d2d 123d 0d5d 1ebe
00000390: 5a2a 43be 7ec0 07be 3bf6 efbd 62b5 39be
000003a0: bbf7 373d 6f8c 573d a3a2 353d 3906 4b3d
000003b0: b6c3 26bd 1b08 98bc 64e7 17bd 0914 64bd
000003c0: d14d 06bc 123c 24bd 3f74 c03d 2880 ab3a
000003d0: e6b1 aa3d ac68 51be ad61 9e3d 0c0f af3c
000003e0: 5ba7 da3d 7fc9 3abe 3f17 1e3d adcb 043d
000003f0: 46db 633e a91e 2dbc b5cc fa3d f035 053d
-0.045288328 -0.11374216 -0.115859896 -0.10200399 -0.0052841143 -0.02782185 -0.12537053 -0.57734513
0.046114396 0.038890447 -0.025909232 -0.12979591 -0.0004614626 0.0074818316 0.0018956808 -0.0152962245
-0.08303445 -0.16964939 -0.3528002 -0.018208262 -0.07626049 -0.12529229 -0.12276147 0.13456506
0.05091491 -0.14379546 -0.12197363 -0.006681892 -0.061242774 -0.21709658 -0.06924896 -0.20122738
0.057255484 0.08221433 0.08000318 0.029792361 0.03024882 0.0026051197 -0.009619479 -0.011522838
-0.022431668 -0.20163998 -0.15912557 -0.23965277 -0.23988277 -0.12481732 0.027742064 -0.01693068
0.030109443 -0.046649978 0.2151477 0.055863872 -0.017129336 -0.12845886 -0.0025342463 0.04774671
0.321572 -0.10043743 -0.39383686 -0.02334961 0.09922426 0.059337214 0.062111113 0.026334157
-0.009340715 0.0312677 0.007926482 -0.05025843 0.00041637407 0.089797825 -0.03219534 -0.19298685
0.020026851 0.08320946 -0.36353135 -0.046190694 0.0105761355 0.02617096 -0.032845136 -0.23276104
-0.10206289 -0.04007807 -0.0009925304 0.0313822 -0.07855763 -0.17290963 -0.011900656 0.1238039
-0.0884182 -0.40867636 -0.012016221 0.04350349 -0.056277864 -0.12288925 -0.02698948 0.007237599
-0.22941338 -0.084386654 -0.12763438 -0.009176885 0.11640719 -0.1787129 -0.0911611 0.01432077
-0.31870577 -0.107529 0.11891133 -0.012185019 -0.105105594 -0.27421364 -0.18491322 -0.0018835249
0.37352708 0.034953002 -0.06291864 -0.3260813 -0.06695294 -0.06577683 -0.15658459 0.061461702
-0.038024303 -0.05654117 -0.09345236 0.054805834 0.11120755 0.08312711 0.038834322 0.11595685
-0.040005937 -0.07802989 -0.036248386 -0.031567242 -0.020593263 -0.030028412 -0.02097441 -0.024100807
0.016897015 0.030643886 0.031134835 0.011616902 0.01350911 0.02684566 0.034234647 0.019847851
0.0052906065 0.07359029 -0.13560504 -0.037522495 -0.054302767 0.025590895 -0.07461634 0.022346526
0.08005094 -0.16083702 -0.1704106 -0.24137661 -0.22466901 0.100241736 -0.06920576 -0.027826205
-0.18600945 -0.060604133 -0.09008483 -0.051957835 -0.19685064 -0.04957178 -0.0068034404 -0.06988704
0.005154278 -0.1982589 -0.109918855 -0.40546414 -0.12262456 0.0900244 -0.15035613 -0.07536025
0.0057282895 0.015300744 0.023946801 0.016412761 0.0025074214 0.015345176 0.035992708 0.02499558
0.0033296156 0.0056626042 0.016379736 0.020043071 0.0075924397 0.004589556 0.0019501828 0.0040521193
-0.03009891 -0.34295103 -0.20285128 -0.059832092 -0.005056667 -0.010288234 -0.23448044 0.0021698107
0.12179375 0.0027225292 -0.31462905 0.12352409 0.16357987 -0.09612354 0.001003276 0.060944833
0.021469766 0.032214537 0.0018803758 0.03134252 0.02980683 0.03118947 0.020514369 0.03484149
0.0077222264 0.0011400734 -0.027368462 0.010731766 -0.03068114 -0.06378589 -0.2678241 -0.037430067
-0.13710766 -0.089510925 0.035687912 -0.15465184 -0.19059125 -0.13257024 -0.117168866 -0.18135598
0.04491399 0.052624162 0.044344556 0.04956648 -0.04071399 -0.018558552 -0.037085906 -0.05568317
-0.008197264 -0.04009635 0.09397172 0.0013084458 0.08334713 -0.20450085 0.07733474 0.02136948
0.10676452 -0.18240927 0.038596388 0.032420803 0.22251615 -0.010566392 0.12246076 0.032522142

encoder.conv2d_1.bias f4 [32]
00000000: 2f5b 47bc 2577 c1bd 4e26 53be a4ec 04bf
00000010: 3894 3bbe 29fa 01be ee99 09be b332 d8be
00000020: a34e 2dbd 18c8 74be c246 5ebd 3686 cebc
00000030: c946 a4be b9cc fabd 457a 4cbc 8171 fcbe
00000040: 624f 85bc bee3 a1be e774 0cbd e950 c7be
00000050: ccf2 43bd 5913 cabe f9c7 19be cab3 6bbb
00000060: c988 48bd fa0f cdbb 850a 91bb 723f edbe
00000070: a455 2bbd 0ab1 8abb 5909 50be 454d 60be
-0.012167736 -0.09446553 -0.20620081 -0.51923585 -0.1831826 -0.12693085 -0.13437626 -0.4222618
-0.042311322 -0.23904455 -0.0542667 -0.025210481 -0.32085255 -0.12246079 -0.012480323 -0.49305347
-0.016273204 -0.31619066 -0.034291174 -0.38928917 -0.04783897 -0.39467886 -0.1501769 -0.0035965317
-0.048958573 -0.006258008 -0.004426303 -0.46337467 -0.04182972 -0.0042325305 -0.20316066 -0.21904476

encoder.conv2d_2.weight f4 [32, 32, 4, 4]
00000000: cc5e 4abe 4aee 8cbe 13e2 b0be 67e7 00be
00000010: f099 09bd c637 f4be 82b1 1ebf 2760 19be
00000020: 68a8 bebc f9d6 98be d4e6 94be c9e7 df3b
00000030: 0454 5bc0 d321 ebbf ee18 87bd 76c6 a73c
00000040: 1fbf 9ebf 8f13 a7bf 0dd5 64bf 1e20 c63e
00000050: d52c 0e3e 91d3 443e ec71 c6bf f40f da3e
00000060: b710 cd3d d8c4 42bd a979 cabf 8cb9 f43e
00000070: 6b9b 1a3e 5f66 3fbd 88fe 8c3d c79a b8be
00000080: 22e4 163d ae01 4ebe f9f3 ac3d c8a0 6e3d
00000090: 55a9 f5bd 1b8e f63d b332 803e c0fc 72be
000000a0: e378 04be 4d47 e0bc 9d9c 4a3e 9e0a 04be
000000b0: 056c 0bbe 1946 38be bfce b8be bb6c a3be
000000c0: 6770 963c 8994 fe3d 9629 59bd 67f7 b5bd
000000d0: 69ff 8d3d 6d02 c03b a9d6 3dbe 6bae b53c
000000e0: e51a aabd 5c98 f4bd 3ab0 fc3d ddf2 32bb
000000f0: 9b27 4bbf c23b 4a3c ed34 133d b8ac 5abc
00000100: dc69 a9be e85a 0abf 0449 453e b13c ddbc
00000110: ec99 503c 1fff 07bf febf 593d 5302 0fbc
00000120: ac96 aabd b470 34be 6a77 b83e a2b8 883d
00000130: 9622 0e3e 182d ec3e 4d32 a53e b128 a13c
00000140: dfd6 69bc 9b89 89bd 2c57 06be 1ae8 6cbe
00000150: afaa 7d3c d028 52be 4d03 4abf 7565 a2c0
00000160: e086 d2bc baf9 6fbe 8492 c5be e090 9bc0
00000170: 0afd ab3d d734 ad3d 8e4b 173e ffb9 b93e
00000180: 3eae 9dbe f88d d4bd 08fc f23d 0562 943e
00000190: 5ba9 d73d cf4f cb3d 55bb 593e b2a4 08be
000001a0: 1381 013c 1832 a53d 5345 b13e e271 4e3e
000001b0: 8c4d fc3a 90e2 acbd 27ea 50be 5695 0dbf
000001c0: bb5a 0bc0 5cbe 0bc0 7d66 02c0 ac51 2abd
000001d0: 316a bdbf 859f 77c0 50b8 2cc0 deaf 2dbc
000001e0: 0afb ccbf 4637 0cc0 ed67 c5bf c4f3 22be
000001f0: 51b5 24c0 feff 97bf 5acb 233e 43da d7bd
00000200: 9ff3 0b3e 7a3d 4abd 5cf4 c9bd 539d cabd
00000210: 5e7a 563e 20e6 1e3e 80f7 cfbc 1b41 003d
00000220: 1d78 973d a85e 893d f96c 633e 3897 323e
00000230: 0d37 72bc c99c 3bbd 63a3 763e 06f7 6a3e
00000240: 0c46 0ebc 786d c43c 5f1b 81bd 7f9e 1b3d
00000250: f0fd e33c 647c 1b3d c0a8 873c e721 083c
00000260: 8a90 5fbc 6f82 353c 5c9b 28bd c102 3dbd
00000270: 955b 453d 1ed4 cfbc 0438 0e3d 231b 48bc
00000280: 06c2 25bf 2ddf 23bf eec2 eabe ad54 9e3c
00000290: 05ed 57bf 4581 09bf 6401 c5be b762 bfbd
000002a0: f44b d6be 7d8f 35c0 45d0 5dbf c24d 9abf
000002b0: 685e a4be 3141 68be af2b ac3e 1e8e 6fbf
000002c0: b188 9bbe ed7f acbe d8fc edbd c956 cd3c
000002d0: 3518 fa3d e69f 82bd 4d34 a9bc 9422 0d3e
000002e0: f771 6c3e 3fa6 063d db77 4c3d 3d43 783e
000002f0: 85f7 2b3e dbbf 1f3d 089d c63d 4e3c 8d3e
00000300: fc2f 0bbf ccc1 c7bf 94aa d4bf 05e6 96bf
00000310: ff2e 53bf c8fc 27c0 e194 49c0 50cd eabe
00000320: eb39 e9be dda5 0dc0 37da edbf c9c2 1a3e
00000330: 7133 45be 3d2e f5bf 14ac b4bf fab2 2f3e
00000340: 7557 053e 8a8e e2be c3ce 103d 1b2b b6bd
00000350: b943 c9be f935 603f 41f2 dcbe d36d 1cbf
00000360: 74c3 d8bd e9f1 a23d b156 b23d 5143 603d
00000370: 1ce7 fabc 4d63 823c 2cb9 373d 232d 3cbe
00000380: f30a abba a3ce 943d ec35 8d3d d053 07bd
00000390: 1b3b 8cbb b1ed f9bd d21c acbc ab43 603e
000003a0: 1036 483d b095 f7bd db97 3d3c 48da 3e3e
000003b0: 0eeb 0b3e 8880 013f 0e31 ef3c 9fc2 dabd
000003c0: 43e2 0abf 8934 90bf 9455 28c0 aa69 f3bf
000003d0: 3198 26bf 4ca7 e6bf 3c2d 7dc0 3120 25c0
000003e0: 89d0 c7be 2e5b c9bf 1332 42c0 1e79 6ebf
000003f0: 9a67 7abd 1451 f5bf 6eb0 0cc0 d90d cebd
-0.19762725 -0.2752555 -0.3454748 -0.12588273 -0.033594072 -0.47698802 -0.61989605 -0.14978085
-0.023273662 -0.2985151 -0.29082358 0.006833051 -3.427003 -1.8369697 -0.06596552 0.020480376
-1.2402076 -1.3052844 -0.8938759 0.38696378 0.1388429 0.19221331 -1.5503516 0.42590296
0.10012954 -0.047551006 -1.5818378 0.4779781 0.1509835 -0.046728488 0.068844855 -0.36055586
0.03683866 -0.20117828 0.084449716 0.0582588 -0.11995188 0.12038823 0.2503868 -0.23729229
-0.1293674 -0.027377749 0.19786306 -0.12894675 -0.13615425 -0.1799549 -0.36095235 -0.31918892
0.018364144 0.124306746 -0.053018175 -0.08885079 0.06933481 0.005859664 -0.18538918 0.022177896
-0.08305911 -0.11943123 0.123383 -0.0027305402 -0.7935731 0.012343349 0.035939146 -0.013346843
-0.33088577 -0.5404496 0.19266135 -0.027006479 0.01273201 -0.5312366 0.053161614 -0.0087285815
-0.0832952 -0.17621118 0.36028606 0.06675841 0.13880381 0.46128154 0.3226494 0.019672723
-0.014272421 -0.06715699 -0.13119191 -0.23135415 0.015482589 -0.20523381 -0.78911287 -5.074885
-0.025699079 -0.23435107 -0.38588345 -4.861435 0.08397873 0.08457344 0.14774916 0.36274716
-0.30797 -0.10378641 0.118644774 0.28981033 0.10530349 0.09927332 0.21262868 -0.13344076
0.007904309 0.08066195 0.34623203 0.2016063 0.0019249185 -0.08441651 -0.20401822 -0.55305994
-2.1774127 -2.1834936 -2.0375054 -0.041581795 -1.4798032 -3.8691113 -2.6987495 -0.010601012
-1.6014111 -2.1908736 -1.5422341 -0.15913302 -2.5735667 -1.1874998 0.15995541 -0.10539677
0.13667153 -0.049375035 -0.09861061 -0.098932885 0.20945117 0.15517473 -0.025386572 0.03131209
0.07395957 0.06707507 0.22209539 0.17440498 -0.014783633 -0.04580382 0.24085765 0.22945794
-0.008683693 0.02397798 -0.06304049 0.03799295 0.027831048 0.037960425 0.016559958 0.008308864
-0.013645301 0.011078461 -0.041163787 -0.046145204 0.048183043 -0.0253697 0.03472139 -0.012213501
-0.6474918 -0.64012414 -0.45851845 0.019327486 -0.8434604 -0.53712875 -0.38477623 -0.09345
-0.41854823 -2.8368828 -0.8664592 -1.205498 -0.32103276 -0.22681119 0.33627078 -0.9357623
-0.30377725 -0.3369135 -0.11620492 0.025065796 0.122116484 -0.063781545 -0.020654822 0.13782722
0.23090349 0.03287339 0.04991899 0.242444 0.1679364 0.039001327 0.0969792 0.2758507
-0.54370093 -1.5606017 -1.6614556 -1.1788946 -0.82493585 -2.6248035 -3.1497118 -0.45859766
-0.45552 -2.2132485 -1.8582219 0.15113367 -0.19257905 -1.9154736 -1.4115014 0.17158118
0.13021643 -0.44249374 0.035353433 -0.088949405 -0.3930948 0.87582356 -0.43153575 -0.6110508
-0.10584155 0.07956297 0.08707941 0.054751698 -0.03062778 0.01591649 0.044854328 -0.18376593
-0.0013049528 0.07265975 0.068950504 -0.033038914 -0.004279507 -0.12203539 -0.021009836 0.21900813
0.048879683 -0.120890975 0.01157185 0.18637955 0.13663885 0.5058675 0.029198196 -0.10681652
-0.542515 -1.1266032 -2.6302233 -1.9016621 -0.65075976 -1.8019805 -3.955886 -2.5800898
-0.39026287 -1.5730951 -3.0343063 -0.9315356 -0.06113396 -1.9165368 -2.1982684 -0.10061235

encoder.conv2d_2.bias f4 [32]
00000000: 3f0d f0bd bf63 a8bd 0387 bcbd 0a88 1abb
00000010: 25c1 01bb 9664 f1bc ed2a 9fbc c7c5 a4bb
00000020: 3681 abbc 5a45 3abd a420 16bb 6a0c 32bc
00000030: ea5c 2abc b1ad adbd b30b 20bb 05e1 8cbd
00000040: 1d96 4fbc bdae f9bd 69d3 8cbd 7fd5 27bb
00000050: b242 c7bc 121a e4bd 85cd 88be ee90 59bd
00000060: 135f cabe 5921 80bd eb33 2ebc 2c10 39ba
00000070: f88a 01bd 3382 59bc 8c22 e5bb dd55 ccbd
-0.117212765 -0.0822215 -0.09205439 -0.002357962 -0.001979896 -0.029466908 -0.019429648 -0.0050284597
-0.020935636 -0.045476295 -0.002290764 -0.010867218 -0.010398129 -0.08480395 -0.0024421036 -0.068788566
-0.012670067 -0.12191532 -0.06876261 -0.0025609431 -0.024323795 -0.11137785 -0.267193 -0.05311673
-0.3952566 -0.062563606 -0.010632495 -0.00070596 -0.03162667 -0.013275671 -0.0069926437 -0.099773146

encoder.conv2d_3.weight f4 [64, 32, 4, 4]
00000000: 2d66 fdbc e61b 573c eb25 61bd 0d26 5cbb
00000010: 2215 fa3b 45a7 413c d3f4 68bd 7dba 0dbd
00000020: 0191 88bd 0562 543b c481 65bd 5ab9 733c
00000030: 66ca 8ebc 1ff4 ab3b f445 26bd 7b8f 89bc
00000040: 7ba9 423c d687 ccbb b2c9 2bbd cc7e 063c
00000050: a9a1 a73c f6a6 6cbc 7b6d 08bd 4e86 5ebd
00000060: 23b3 0a3d a579 c73c ab64 5ebd 701a 6bbd
00000070: 8d0d 82bc 9e8f 6bbd b223 29bd 1fcd 8b3c
00000080: c38d 0cbd 0a17 23bd b172 40bd 17e1 83bd
00000090: c524 40bd 4108 303c 2516 813a 7780 80bc
000000a0: 93a1 11bd c945 21bd 3c0a 27bc a863 b03b
000000b0: f19f 1dbd e217 b93b 9c4b 603c d83d 15bd
000000c0: ec7c 3fbd 34c6 3cbd f4af eebc e20c 143c
000000d0: 3722 67bc 6919 33bd cb35 6e3b 6bdd 51bc
000000e0: db39 02bd f675 fd3c bc08 15bd b1ed 8ebc
000000f0: f21a 5fbc a716 8d3c 8e40 10bd 7495 9cbc
00000100: 1b37 53bd c82e 9a3c 863e 5abd 174d efbb
00000110: 510e 17bd 042e cd3c 1f0f cf3c 4e50 56bd
00000120: e7a7 00bc 4ce0 0fbc 59fb 15bd 14cf debc
00000130: 8b23 bf3b dec0 c7bc a02a 58bc 693e 26ba
00000140: 1c64 543b 4c39 893b 1caf 6dbd cff3 833c
00000150: 6690 59bc c079 5c3c a52c 7abc f0ee a2ba
00000160: 6c3c 8e3c c8be f5bc 4ffb 92bc ee7e 18bc
00000170: 0fc8 aabc 15bb b7bc b0a3 24bd f190 05bd
00000180: 981d f6bc 1776 bbbc fce8 95bb e85d febc
00000190: 309b 393c f2fb 903c e185 0cbd 353a 42bd
000001a0: c1d4 35bd eddf ffbc b987 14bd 96bb a63c
000001b0: cf7d c33c fb71 b0bc 849d 38bd 2b80 4ebd
000001c0: b685 4cbc 478e 86bd 919a 78bd 59f2 5abd
000001d0: 71bd 0e3d 9fa6 833c 0c3d 8fbc 87b1 51bd
000001e0: 68ff bcbc dcb0 29bd c3c0 04bd 5c33 20bd
000001f0: f506 85bc 7d09 3dbd 01db a6bc 0fb7 21bd
00000200: c89c 20bc 8683 5abc 7591 a8bc 36f6 9c3c
00000210: 7bcd 083d 3c71 32bd 8027 15ba 6cd6 53bc
00000220: 1f49 17bd d21c 963c a86b ccbb 85e6 303d
00000230: de3f b33c 38e3 74bc 9d77 0c3d 5098 1e3b
00000240: d872 d8bb d243 d83c 16b6 14bd d985 033d
00000250: 20cd 04bc bffe 23bd 90cc 873c 49c2 f9bc
00000260: e8c8 6cbc ada2 033d 80c3 e3b9 584d 863b
00000270: dc00 a0bc 20a7 b1bb aeb0 cd3c 4441 773c
00000280: f7d3 0bbd e2ed 833c 1c5a bbbb 716b 44ba
00000290: f953 ecbb 7078 1f3c 18d1 883b 8182 fbbc
000002a0: e058 bb3a 271a ec3b 2a25 db3c c795 0bbd
000002b0: a174 d2bb 74d6 963c 82a0 373c 77e4 593c
000002c0: 5eb6 5bbc f992 6abd 52a0 8dbd 15b2 e5bc
000002d0: f183 e9bb 2736 143d 72ca 623b bbbf 8dbd
000002e0: 0336 58bc 9918 083d 1679 443b e987 19bd
000002f0: b49f cdbc 0b09 233d 2763 a03c d9fc 85bd
00000300: fbe8 f6ba b27e 27bd 0512 79bc 2d6a 09bd
00000310: cc28 023b 5d40 de3a 156e e03c e76b 60bd
00000320: 092e fa3b 3e5b f8bc 721e 093d 1f34 4abd
00000330: 9a23 4fbc 8472 a43c 685c 05bc 70df 6cbd
00000340: e9be cfbc 9a6a 58bd 0252 1cbd 4c6e 91bd
00000350: 2f6e d2bc d490 5c3c 7209 cb3b 2fc4 53bd
00000360: 7d86 2ebd 3ba0 19bb 2f5c 1ebc e042 333c
00000370: 9ab6 38bd ab87 1fbd 5831 01bd 9389 86bd
00000380: bc0c 56b9 4515 fdbc a7dd 32bc 48af 17bb
00000390: 28ce 2fbd 91ec bf3c 22d9 cabc 5b13 55bb
000003a0: fc58 a93c d5c9 7bbb bef5 bd3b 609b 93bc
000003b0: e971 2dbd fde1 1bbb 9fb5 54ba f184 4e3c
000003c0: 2050 05bd eb9c 503c 5538 82bc a216 e43c
000003d0: 82a2 a1bc 6000 583a 367e 6d3c 284e ce3b
000003e0: 4caf f93c 6cdd 76bc 9855 12bd 4376 63bd
000003f0: d9ac 64bc 3c87 12bd 8a65 a8bc 73fe 813c
-0.03093251 0.01312921 -0.054967802 -0.0033592016 0.0076319138 0.011819665 -0.056874108 -0.034601677
-0.06668282 0.0032407057 -0.056031957 0.014875734 -0.017430495 0.0052476074 -0.040594056 -0.01679205
0.011881228 -0.006241779 -0.0419404 0.008208942 0.020462828 -0.014444103 -0.033307534 -0.0543273
0.033862244 0.024349997 -0.054295223 -0.05739826 -0.015875602 -0.05751001 -0.041293807 0.017065583
-0.034314882 -0.039816894 -0.04698438 -0.06439417 -0.046910066 0.010744155 0.0009848519 -0.015686257
-0.03555448 -0.039373193 -0.010195311 0.0053829737 -0.03848261 0.005648599 0.013689902 -0.036435932
-0.046749994 -0.04608746 -0.029136635 0.009036275 -0.014107279 -0.043725405 0.003634798 -0.012809138
-0.031793457 0.030940037 -0.036385283 -0.017447324 -0.013617264 0.017222716 -0.035217814 -0.019114234
-0.051566225 0.018821135 -0.053282283 -0.007302891 -0.036878888 0.025046356 0.025275765 -0.05232268
-0.007852531 -0.008781504 -0.036616657 -0.027198352 0.0058330945 -0.024383958 -0.013193756 -0.00063416973
0.0032408303 0.0041877385 -0.058028325 0.016107468 -0.013279056 0.013456762 -0.015269433 -0.0012430828
0.017362796 -0.029998198 -0.017942099 -0.009307606 -0.020847348 -0.022428075 -0.040195167 -0.03260893
-0.030043408 -0.022883458 -0.004574893 -0.031050637 0.0113285035 0.017698262 -0.034307364 -0.04741879
-0.04439235 -0.031234706 -0.036262248 0.02035312 0.023863701 -0.021538725 -0.045072094 -0.0504152
-0.012483051 -0.06570106 -0.06069428 -0.053453777 0.034848634 0.016070662 -0.017485164 -0.051194694
-0.023071006 -0.041428432 -0.032410394 -0.03911148 -0.016238669 -0.046151627 -0.020368101 -0.03948122
-0.009803005 -0.013337022 -0.020577172 0.019160371 0.033399086 -0.04356502 -0.0005689785 -0.01292954
-0.036934968 0.01832429 -0.0062384196 0.04318859 0.02188104 -0.014946751 0.03429376 0.0024199672
-0.0066054873 0.026399527 -0.036306463 0.03211007 -0.008105546 -0.040037867 0.016577035 -0.03048815
-0.014452197 0.03213756 -0.00043442473 0.0040985756 -0.01953166 -0.005421534 0.025108662 0.015091244
-0.034137692 0.016104642 -0.005717529 -0.00074928167 -0.0072121588 0.009733304 0.0041753165 -0.030701878
0.0014293455 0.007205266 0.02675112 -0.034078386 -0.0064225947 0.018412806 0.011207702 0.013299099
-0.013410179 -0.05726907 -0.06915344 -0.028039018 -0.0071263243 0.036184456 0.003460553 -0.06921335
-0.013196471 0.033226583 0.00299794 -0.03748313 -0.025100566 0.039803546 0.01957853 -0.065423675
-0.0018837744 -0.04089231 -0.01520205 -0.033548523 0.0019860743 0.0016956438 0.027396241 -0.054790404
0.0076348823 -0.030316945 0.0334763 -0.049366113 -0.012642765 0.020074137 -0.008139707 -0.057830274
-0.025359588 -0.05283604 -0.038164146 -0.071011156 -0.025687305 0.013462264 0.0061961943 -0.051700767
-0.042608727 -0.0023441452 -0.009665533 0.010941237 -0.045096017 -0.038947742 -0.0315412 -0.06569209
-0.00020413374 -0.030893931 -0.010917104 -0.0023145247 -0.042921215 0.023428233 -0.02476174 -0.0032512757
0.020672314 -0.0038419862 0.005797117 -0.018018425 -0.04234496 -0.0023785823 -0.0008114222 0.012604938
-0.032547116 0.012732725 -0.015896002 0.027842823 -0.01973081 0.0008239802 0.014495423 0.006295938
0.030479096 -0.0150674395 -0.03572616 -0.055532705 -0.013957226 -0.0357735 -0.02055623 0.015868401

encoder.conv2d_3.bias f4 [64]
00000000: f34e 8bbd 84ca 8cbc 4725 a03d 4526 46bd
00000010: 0508 57bd c2b7 82bd 7614 abbb 8cc6 b1bc
00000020: 946a 88bc d99e 5dbb 79f4 1dbc 28e1 c6bd
00000030: 04a5 29bc 6256 73bc f68b 06bd 9778 74bd
00000040: b859 a8bc 6901 4dbd fd3c 8ebb 5642 27bb
00000050: e8d2 38bb 33a5 9cbd cf7f d1bb 11f8 8f3c
00000060: ed93 e4bb 94b8 72bc d541 3bbb 1099 bebb
00000070: bebd eabc a3c7 96bb 2d64 55bc a27e 4abb
00000080: 7b13 7bbd 510a fbbc dcb1 c8bc 3497 50bb
00000090: c66c 54bb 6740 adbb c86e fdbb 0b93 0ebd
000000a0: 0094 2dbc 3e8d 4fbb 3858 70bc 91a9 b4bb
000000b0: 2723 06bc b5b0 79bb 546d 85bd b187 14bd
000000c0: 4a40 bfbd 534d bbbc acf4 01bb 1895 96bb
000000d0: ea6d 06ba 1bfc bcbb d434 2fbb 6b16 44bd
000000e0: 7656 a5bb 5161 4fbc b0d1 a3bc 06cd d8bb
000000f0: a39c 66ba f2af cdbc 2999 3c3d 3f3b dcbc
-0.06802168 -0.01718641 0.0781961 -0.04837634 -0.052497882 -0.06382705 -0.005220945 -0.02170112
-0.016652383 -0.0033816604 -0.009640806 -0.09710914 -0.010354284 -0.014852138 -0.03284832 -0.059685316
-0.020550594 -0.050050173 -0.0043407665 -0.0025521717 -0.0028201882 -0.07648697 -0.00639341 0.017574342
-0.006975642 -0.014814515 -0.0028573174 -0.0058165863 -0.02865493 -0.0046014353 -0.013024372 -0.0030898233
-0.061297875 -0.030644568 -0.024498872 -0.0031828405 -0.0032413467 -0.0052872184 -0.0077341534 -0.0348082
-0.010594368 -0.003166988 -0.0146694705 -0.005513378 -0.008187092 -0.003809971 -0.06514993 -0.036262218
-0.09338434 -0.02286402 -0.0019829674 -0.00459541 -0.0005128073 -0.005767358 -0.002673437 -0.047872942
-0.0050457073 -0.012657479 -0.019997448 -0.0066162376 -0.00087971444 -0.025108311 0.046044502 -0.02688372

encoder.conv2d_4.weight f4 [64, 64, 4, 4]
00000000: 6414 f5bc e4aa dabc 781c 07bc b87c e93b
00000010: 88d8 7fbc 4861 9dbb b087 5d3b c52c a13c
00000020: 806d 7cbc 5e6e 14bd 6204 8f3c 2035 6ebb
00000030: 409f 403b 30cf 743c 98c5 583c 0035 4bbb
00000040: 8211 47bf eeb1 03be 3a09 8abe 5a37 903e
00000050: d95c d6bd 1be2 9d3d 4523 18be f14c c63e
00000060: 16c5 abbe 52e3 2dbd 7d1e 0abe c3d3 283e
00000070: ec23 12be f6d4 4cbd 9ef9 46be 22e1 173e
00000080: 59e2 ad3d 842a 86be fab6 96bd 4f65 233e
00000090: 91e6 ebbd c674 d6be a22e 02be 72e1 8e3d
000000a0: 7dcc 67be f27d bdbe fab9 7d3e c875 af3d
000000b0: 9bd1 293d a7ef 04bf adea bbbd 3c2f 4e3e
000000c0: 5cbd 893f a82c b23e d3a1 13bf 84a6 cb3d
000000d0: dbd3 463e 8f3c 04bf 885f 08bf 0268 afbc
000000e0: 5553 cb3e 64e1 033e 5ac3 7dbe 6d11 623d
000000f0: 8ccf 973e e801 063e f9dd 2dbd 05b2 7c3d
00000100: aec4 ecbd f57b 073e 62e4 07bd f747 093e
00000110: 05c7 31be e929 e63d 74af 953d f8a2 813e
00000120: a95f 773e 55e7 593d 6b2e a93e 4728 8e3e
00000130: f50a 573e 6a62 a1bc 58e9 4c3e 6883 dd3d
00000140: bbfe 9fbb c059 6f3c 4bb3 263c 0ce3 79bd
00000150: bf70 e73c bc8a e83a e389 173c c0cf b53b
00000160: 7233 33bc 0d47 e53b 78a9 3fbd c45f d2bc
00000170: 695c c3bc f9e1 71bc 4f44 383b 4f76 463c
00000180: d058 503e f68c 953e b559 9bbf 16ff 81bf
00000190: 37df 133f 18cf 163f 7547 44c0 6e66 adbe
000001a0: dd3d 1c3e 9cbf ae3e 9cc1 1ec0 3579 c23e
000001b0: bc1e 033e b1be 773e efaf bfbf ecc2 19be
000001c0: 8456 cfbb a60a cabc 3f84 e7bb d20d 30bc
000001d0: 18b1 333d 8304 e4bc 5ab6 46bd e586 763b
000001e0: c319 61bd 9d11 393d a71f 72bc 07f2 633c
000001f0: b968 843c f4ff 4bbc b627 ab3b f74c 41bc
00000200: 0138 1bbe 372b a83e 9ff3 a53e 5505 863e
00000210: 5d57 2dbf 725c 453f e028 a53e 4b8e 063f
00000220: 43ce 80be c568 ae3e c07c 013e 4f8a ba3e
00000230: a67f ac3e a9be 00bd 1b6e 523e c5c9 203e
00000240: 0c5e 773a 4025 b1be 53df 253f 3115 88be
00000250: d1b3 efbd ba45 aebe b9bf ec3f 3d7d 473f
00000260: 0706 6abe 19af f6bd 6735 56be 6c03 70bf
00000270: ebbf 7dbe 9d7f 25be 998e 03c0 9195 c4bd
00000280: f520 a4be 46cd 53bf 9d0e c0be b426 08bf
00000290: 54ae 0fbf fc3a 8dbe 52b0 0fbe 74e0 e8be
000002a0: 9d2b f7bd aa68 a53e 97d4 5c3d d4ae b03d
000002b0: ca9b 30c0 8060 2bbe 24f9 563d 7e41 943d
000002c0: 95b6 3ebf 43be 45be 4400 a03c d91a bebe
000002d0: 0b69 04bf 44be babe 536e 95bd 0073 20bf
000002e0: 9528 b93e 58e3 f33c f4c7 ce3d c6ee 44bf
000002f0: 787e c13e 3fc2 873e cf14 983d eacb ddba
00000300: 837f 2b3f 43ed 05bf 1aa9 67bd 65b0 3bbe
00000310: a95d 00bf 254f 35bd 1aa7 853e e4a5 bcbd
00000320: 0279 993f ec1b 80bd 7488 193e e657 97bd
00000330: c822 e7be 98aa 833e a352 16be f172 a5be
00000340: 9199 243f c213 d9bc e1a2 0bbe b7ce 98bf
00000350: 90ba 02be 8475 043e 27b8 28be 2f3e 3fbf
00000360: 2a4b 1dbf 1b39 04be b550 3cbe 88b8 d3bf
00000370: 2534 1bbf 7287 a7be 7745 a4bb 1b1a 83bf
00000380: aa1f e7bc da6c 873c 40a9 873b 9824 f63c
00000390: 7abf fd3c 8067 1cbc 0860 22bc a832 df3b
000003a0: c09d ecbb e42f 073c a0c4 74bc 38c2 b63c
000003b0: 1a2c a2bc f02a a53c 6d5d 1f3d d0e6 463b
000003c0: 0694 85be 241d bebb 3f3b 8bbe a6d6 d6bc
000003d0: b2f5 e03e dc2c 9dbe fae7 64be 8ba2 13be
000003e0: e350 1f3d 1f0f d9be baf6 12be 6eb8 8cbe
000003f0: 68d6 873f ee69 18bc e812 d6be 3140 3bbe
-0.02991695 -0.026692815 -0.008246534 0.0071254633 -0.01561559 -0.0048028566 0.00338028 0.019674668
-0.015406966 -0.036238067 0.017458145 -0.0036347583 0.0029391795 0.0149419755 0.013230704 -0.0031006932
-0.7776109 -0.12860844 -0.26960164 0.2816723 -0.10466928 0.07709142 -0.14857204 0.38730577
-0.33548802 -0.042453118 -0.13488193 0.1648703 -0.14271516 -0.050007783 -0.19431159 0.14831975
0.08490438 -0.26204312 -0.07359119 0.15956615 -0.115185864 -0.41885966 -0.12713102 0.06976594
-0.226366 -0.3701015 0.24777976 0.08567387 0.04145966 -0.5192818 -0.0917562 0.20135206
1.0760913 0.34799695 -0.576688 0.0994387 0.19416754 -0.51654905 -0.5327077 -0.0214119
0.39712015 0.12878948 -0.24781552 0.0551924 0.29650533 0.13086665 -0.042448018 0.06169321
-0.11560951 0.1323088 -0.033176787 0.13406359 -0.17361076 0.112384625 0.07308856 0.25319648
0.24157585 0.05319913 0.33043227 0.27765104 0.21000274 -0.019700248 0.20010889 0.108160794
-0.004882661 0.0146088 0.010174583 -0.061007544 0.028252004 0.0017741541 0.009249183 0.0055484474
-0.0109375585 0.0069969953 -0.046792477 -0.02568043 -0.023847776 -0.014763349 0.0028116887 0.012113168
0.2034638 0.29209107 -1.2136751 -1.0155971 0.57762474 0.5890975 -3.0668614 -0.3386721
0.15257974 0.3413056 -2.480567 0.379831 0.12804693 0.24193837 -1.4975566 -0.15015763
-0.006327452 -0.02466328 -0.0070653255 -0.0107454825 0.04387006 -0.027834183 -0.048513748 0.0037617024
-0.05495621 0.045182813 -0.014778054 0.013912684 0.016163217 -0.012451161 0.00522324 -0.011798135
-0.15158083 0.3284547 0.3241243 0.26175943 -0.6771143 0.77094185 0.32257748 0.5256087
-0.25157365 0.34064308 0.12645245 0.36433646 0.33691138 -0.031431828 0.20549814 0.15701969
0.00094363163 -0.34598732 0.6479389 -0.26578668 -0.11704219 -0.34037572 1.8496009 0.77925473
-0.22853862 -0.12045116 -0.20918809 -0.9375522 -0.24780242 -0.16161962 -2.0555785 -0.0959884
-0.32056394 -0.827351 -0.3751115 -0.53184056 -0.5612538 -0.27584064 -0.14032105 -0.45483744
-0.120688654 0.32306415 0.05391368 0.08627096 -2.7595086 -0.1673603 0.052483693 0.07239054
-0.7449735 -0.1931086 0.019531377 -0.37129858 -0.5172278 -0.36473286 -0.07296433 -0.62675476
0.36163774 0.029771492 0.10096732 -0.7692684 0.377918 0.26515386 0.07425844 -0.0016921733
0.6699144 -0.5231516 -0.056557752 -0.18329008 -0.50142914 -0.04426493 0.2610405 -0.092113286
1.1990054 -0.06255326 0.14993459 -0.07389812 -0.45143723 0.2571609 -0.14679961 -0.32314256
0.64296824 -0.02649868 -0.13636352 -1.1938084 -0.1276648 0.12935454 -0.16476499 -0.7470426
-0.61442816 -0.12912409 -0.18390162 -1.654069 -0.6062644 -0.32720524 -0.0050131637 -1.0242342
-0.02821334 0.016531397 0.004140049 0.030046746 0.030975092 -0.009546161 -0.009910591 0.0068114586
-0.0072209537 0.008251164 -0.014939457 0.022309408 -0.01979642 0.020162076 0.038907457 0.0030349977
-0.26089495 -0.0058018137 -0.2719364 -0.0262254 0.4393745 -0.30698287 -0.22354117 -0.14417474
0.0388955 -0.4239435 -0.14351931 -0.2748446 1.0612307 -0.009302599 -0.418113 -0.18286206

encoder.conv2d_4.bias f4 [64]
00000000: bbd6 313e e2b2 30bd a1b2 f13d 4f05 60bc
00000010: 0f70 1dbd 0a72 81bb 98d3 b53e 51c6 523e
00000020: 41cd 973e c6fa ddbc 5bef 16bc 4efa 5fbc
00000030: 051a dbbb 2436 bfbc cacb 853e cfbb aebc
00000040: 23cf 18bd f9eb 0f3e db9c dbbd 58e6 803e
00000050: c954 61bd 706a 35bd ded5 a7bb 5908 793e
00000060: 289e 60bc d7ca 883d 3587 873e a171 31bd
00000070: fa3d 6c3e 48a0 3cbc f325 453e 0522 3fbd
00000080: e9e5 da3e 435f 18bd 5efd e83e 3abf a73e
00000090: 8e7e af3d 5d8f 643e c7b5 893d b8d1 94bc
000000a0: 364b bdbc 26ee 523e dfa3 263e 7639 273e
000000b0: b3e0 ddbc e6f6 57bc d566 b239 5729 473e
000000c0: efb0 9c3e ddc6 ad3e e1e8 52bd 4ab3 ca3e
000000d0: 25d6 413e d940 5a3d 4191 143d ab10 41bd
000000e0: 497a a3bc 9a83 b33e 7c5c 8a3e 9176 3a3e
000000f0: e5b0 afbc 6daf 58bb 2c33 00bd 56f2 02bd
0.1736707 -0.043139346 0.11801649 -0.013673141 -0.038436946 -0.003950362 0.35512996 0.20583464
0.29648784 -0.027097117 -0.00921234 -0.013670517 -0.0066864514 -0.023341246 0.2613204 -0.021329788
-0.037306916 0.1405486 -0.10723277 0.25175738 -0.055012498 -0.04429096 -0.0051219305 0.2431959
-0.013709582 0.06679314 0.26470342 -0.043321256 0.23070517 -0.011512823 0.19252758 -0.046663303
0.42753533 -0.037200224 0.45505804 0.32763082 0.0856906 0.22320314 0.067241244 -0.018166408
-0.023107152 0.20598659 0.1627345 0.16330513 -0.027084684 -0.013181424 0.00034027421 0.19449364
0.3060374 0.33940783 -0.051491622 0.39589912 0.18929346 0.0532845 0.036271337 -0.047135036
-0.019955771 0.35061342 0.27023685 0.18209292 -0.021446655 -0.0033063546 -0.0312988 -0.03196939

encoder.linear.weight f4 [20, 256]
00000000: 8626 8abc 1b79 b23a 0ed3 503c cf61 393d
00000010: bf37 a0b9 49ec 29bd d98e 51bc 536e 1ebb
00000020: 095f b03d 136e e6ba d299 603d 91fd 61bc
00000030: 07c8 9e3c 5ec0 80bd 8ebc 073d 8307 883d
00000040: de8d e9bc 3590 593d ccd8 46bb 2279 103d
00000050: a5bf 5a3d dc6b 12bd 50ce d2bc 6757 843d
00000060: 8cdb 5c3e 09c2 6d3e 031d 9c3e ea8c df3e
00000070: 6e47 913e eb61 97bd 4b9e d03e e8d3 8f3e
00000080: 558a 653d f797 243d b277 9f3d cf38 03bd
00000090: 0bfb e0ba 9395 2cbd 0a57 4d3b f512 86bb
000000a0: 531e 78bd 4957 a7bc 2cb2 5abd c27a b83c
000000b0: 0aee 0dbd eca1 15bd 397d 10bd a0dc c1ba
000000c0: 99f2 2cbd 2045 9cbd 582b 3abd e98a 38bc
000000d0: 9b37 85bd 1509 393d e070 1ebb a950 c43c
000000e0: a1be 103d 85e4 cabe cd48 86bd 0250 0abf
000000f0: 8d17 523d 21d5 5e3d 78ff 20bd b983 f03c
00000100: eb76 f23c 53f9 183d a946 55bc 525a 023d
00000110: 2bd6 50bd 7a16 133d ec64 b2bd dc3e 343d
00000120: ff9e f7bc c28d 66be 46c9 38bd d2c3 89be
00000130: 984b 753d a7b1 a6bd a9d1 d3bd 1fd2 0ebe
00000140: 965b f3bc ffb9 733c 6dad 61bc 2b23 b2bd
00000150: 39b8 03bd fc97 1f3d 3486 043d abb1 b4bc
00000160: c94b 54bd 7d2a 93be d85d 37bc 0834 753b
00000170: 44e6 3d3c de28 e93f 971c 6a3d d7e4 143f
00000180: b6c5 2dbc 27d5 563d 66e8 41bc 4ccd 1b3d
00000190: 40f7 41bd 0d7d 8639 5b66 54bc b0ed 9abd
000001a0: e6fe dabc 7a32 9d3b e5c4 a9bd e535 41bd
000001b0: 7c49 673c 943f 4cbc 5f13 70bc 1829 62bd
000001c0: 3065 18bd 1e9f 373d ca93 203d 6469 593d
000001d0: e864 c2bc 6270 7e3d d687 143b 251f 93bc
000001e0: 0da4 753d a61f adbd af12 67bd 8a7e bfbc
000001f0: acc3 803d 4fd7 803d 7293 6e3d 70d8 00bd
00000200: da69 72be e018 6a3b 8db9 863d c5e7 51bd
00000210: b1b7 bf3c df55 0c3d 7c89 f5bb 34f9 a1ba
00000220: d824 53be 22df 7ebe f099 67be 42a1 82bd
00000230: 41aa 33bf 3bd8 c7be 1e91 35bf 5f79 c6be
00000240: 0b09 9bbd 2cca cdbc 78db de3c 6c94 84bc
00000250: 27d5 cd3c b6a5 c0bd 6c4b 3c3d 298a ae3d
00000260: 5256 56be 0734 a7bd a7f9 94bd d878 5fbd
00000270: fdb7 dfbc 4bc0 413d 78a5 063d d665 f93a
00000280: bb7b bc3c 30ad c93c 175c 10bd 113b b13c
00000290: 1f3a 273f 2891 603e 4a15 ae3e 9815 39bc
000002a0: 5d9b ed3d ac82 8b3c b5d5 cb3c e655 12bd
000002b0: d58d 0d40 ad14 9d3b 1b7c fb3d 6822 b9bc
000002c0: 61fb 1a3d 03d9 723b bb90 793d 78cc 2c3c
000002d0: bd2b 13bd 9deb 373d b069 a4bc 316d 26bd
000002e0: b3e7 f5bc 00d3 193c 58d5 b23c 2061 52bd
000002f0: aa9a 26bc e8bf 74bd 50a2 81bc 5243 a1bd
00000300: 93d0 0f3e fc8a 12be 4b03 da3b 363c 3c3a
00000310: 600e 11be a5fe 15bd faa0 82be aa38 e5bd
00000320: 6648 6ebd 6e78 4d3c fc86 4dbd b540 88bc
00000330: 5f4f a63d a9f6 39bc 55a2 c5bc 13be e53e
00000340: 1cb3 283c a20b 293f 5f1a 69bd 3d4b b93e
00000350: 85ab d6bf a12a 11be 9457 91bd b15c 8b3f
00000360: 3113 acba 5c77 d63d c09f a63c 7e6f b53d
00000370: dcb3 03bd f03c 47bd 1b99 a13c df62 24bd
00000380: 0f5d 02bd 7ce0 c1bc c049 c3bb f1e6 a13c
00000390: 4402 73ba ac1e 5a3d 4152 24bf 886a 59be
000003a0: b04f 57be b913 c6bc d393 e9be 20ce 9ebe
000003b0: 6562 febc e1b1 a9bf 8a55 8e3c e03e 0ec0
000003c0: ec1a 073d 44a9 2d3d 2e02 343d a82e 813c
000003d0: 1013 c3bc c0cb 12bc 213f c8bc 1276 84bc
000003e0: 0c18 52bd 0c83 0dbd 8cfe 13bd 6a7c 73bd
000003f0: 54c0 deba eb7d 33bd 54b5 00bc 4629 81ba
-0.016864073 0.0013616415 0.012745632 0.045259293 -0.00030559112 -0.041485105 -0.012790405 -0.0024174645
0.086118765 -0.0017580412 0.054834194 -0.013793365 0.01938249 -0.06286691 0.033138804 0.06642058
-0.02851003 0.053116042 -0.0030341623 0.03527177 0.053405423 -0.035747394 -0.025733143 0.06461983
0.21568125 0.2321855 0.30490884 0.43662196 0.2837481 -0.07391723 0.40745768 0.2809136
0.056040127 0.040183987 0.07786502 -0.0320366 -0.001716466 -0.042134833 0.0031332397 -0.0040916153
-0.060575794 -0.020427363 -0.053392574 0.022519473 -0.03465084 -0.036531374 -0.03527567 -0.0014790483
-0.042223547 -0.07630372 -0.045451492 -0.0112635875 -0.065047465 0.045174677 -0.0024176165 0.023964243
0.035338048 -0.39627472 -0.065568544 -0.5402833 0.05129199 0.054402474 -0.039306134 0.029359685
0.02959772 0.03734715 -0.013017335 0.031824417 -0.050985496 0.035910107 -0.087106556 0.04400526
-0.030227182 -0.22515014 -0.045113824 -0.26907212 0.059886545 -0.08139353 -0.10342724 -0.13947342
-0.029706758 0.014875888 -0.013774258 -0.08698114 -0.03215811 0.038963303 0.03235455 -0.022057375
-0.051830087 -0.28743353 -0.011191808 0.0037415046 0.011590544 1.8215597 0.05715617 0.5816168
-0.01060622 0.05244937 -0.011835193 0.038037583 -0.047354937 0.00025651642 -0.012963857 -0.075648665
-0.026732873 0.004797277 -0.08289508 -0.04717054 0.014116641 -0.01246633 -0.014653056 -0.05521497
-0.037205875 0.04482948 0.039203443 0.053079024 -0.023729756 0.062118895 0.0022663972 -0.017959187
0.059970904 -0.08453302 -0.056414302 -0.023375768 0.062873214 0.06291067 0.058246084 -0.03145641
-0.23673192 0.0035720393 0.0657836 -0.051246423 0.02340302 0.03426158 -0.007493196 -0.0012357594
-0.20619524 -0.24889806 -0.22617316 -0.06378414 -0.7018166 -0.39032158 -0.70924556 -0.38764474
-0.07570084 -0.025120817 0.02720426 -0.016184054 0.025126053 -0.09406607 0.045970365 0.08522446
-0.20931366 -0.0816422 -0.0727418 -0.054558605 -0.027309412 0.047302525 0.032872647 0.0019027542
0.023008218 0.024618715 -0.035244074 0.02163461 0.6532306 0.21930373 0.34000617 -0.011296652
0.11601899 0.017030083 0.024882177 -0.03572645 2.2117817 0.0047937245 0.122795306 -0.022599414
0.03783739 0.0037055619 0.06092904 0.010546796 -0.035930384 0.044902433 -0.020069927 -0.040631477
-0.03001771 0.009388685 0.021830246 -0.051362157 -0.010168711 -0.05975333 -0.015824467 -0.078741685
0.14044409 -0.14310831 0.0066532246 0.0007180603 -0.1416564 -0.0366198 -0.2551344 -0.111924484
-0.058174513 0.01254092 -0.05017756 -0.016632417 0.081206076 -0.011350312 -0.024125258 0.44871578
0.010296609 0.66033375 -0.056909915 0.36190215 -1.6771094 -0.14176418 -0.07096782 1.0887662
-0.0013128278 0.10471985 0.020339847 0.08859156 -0.03215395 -0.0486421 0.019726327 -0.040133353
-0.03182703 -0.023666613 -0.0059597194 0.019763442 -0.0009270052 0.053251907 -0.6418801 -0.21232045
-0.21026492 -0.024179326 -0.45620593 -0.31016636 -0.031052778 -1.3257409 0.017374773 -2.2225876
0.03298466 0.042397752 0.04394739 0.015769318 -0.0238128 -0.008959711 -0.024444165 -0.016169582
-0.051292464 -0.034548804 -0.036131427 -0.059444822 -0.0016994574 -0.043821257 -0.007855732 -0.0009854219

encoder.linear.bias f4 [20]
00000000: 3ed4 13bf 8d5e a43e 8234 8ab9 5906 3038
00000010: edd8 96be 4aa5 c0bd cb13 febc 2d0d 9fba
00000020: b88b 923e f572 25be 9e28 8dbf 2117 54c0
00000030: f79e 2d3b 6819 7b3b 41a0 ccbf 27ba 9dbf
00000040: f806 6cc0 e56b 793b c196 abbf c899 01c0
-0.5774573 0.32103387 -0.00026360533 4.196758e-05 -0.29462376 -0.094065264 -0.031015297 -0.0012134664
0.28622222 -0.16157134 -1.102802 -3.3139117 0.0026492456 0.0038314704 -1.5986406 -1.2322434
-3.6879253 0.0038058695 -1.3405381 -2.025011

decoder.linear.weight f4 [256, 10]
00000000: d8d8 8f3c a01b 9dbc 00f0 b5bb 9d38 4abb
00000010: 38b8 dcbb 30cd 65bd bbf9 e0bd df95 4a3b
00000020: 9284 31be 7363 3e3c afb9 08be 73c4 88bf
00000030: add1 493a 5292 39bb d065 4d3b dd73 31bc
00000040: ec2f 8a3e afa2 2f3b 0a89 55be fb39 37bf
00000050: 2d6c 6f3e 2f43 e5be 53b6 65b8 a0f9 2f3b
00000060: 89db d9bb 6465 893c 3f73 1939 b924 14ba
00000070: b380 cb3d 7683 dd3d d389 1d3c 0c12 2abe
00000080: 7e3c 813a 3a5a 053b 267b e03b a405 833d
00000090: 3ef3 c5bd 6681 adbb f489 15bd 2ebf 453f
000000a0: 9c37 f3bd 85ef e03b 3c04 f53a 68fc d6bb
000000b0: c980 a03a 6ccd fe3d 47f3 f7bf c69e 253a
000000c0: e8a0 4bbe 35c4 f43d ccf5 74be a31a 57be
000000d0: 630e 7b3b 72ef aeba 72be 013d 31d7 b63c
000000e0: 6123 f93c dfa7 a1ba 141f e23c eae9 44be
000000f0: 433f 0ebe 2661 7b3e 46b0 6c3b 83ee 0a3c
00000100: cbda a9bc 11d8 253d 0527 e33d 0934 3ebc
00000110: 776c 2f3d 8125 113f e3cf 243f 14a2 0f3f
00000120: 7e75 a0bb 54ac 493b f28a ac3d 3984 18be
00000130: 85b9 153e 2922 1a3b 17b8 033e 88bc 003e
00000140: 6e00 ed3d 464a dc3e 036d f9ba 4f95 71bb
00000150: d8b3 c33c 5185 f3be dcb8 75be 2122 acbb
00000160: c2f0 93be 66f0 1a3d 1e58 0cbd c512 c6be
00000170: 35c8 12bb 9826 0abb 0c33 d03c 3f51 1abd
00000180: 6c2d 91be a67a 383a 52b6 843e b695 8ebe
00000190: 57fc 5c3c b5d6 2d3f 1e20 89b8 58c9 9fba
000001a0: bbfb d93c bcf3 63bd 1476 a4bf aad2 a23b
000001b0: a203 10be 0c37 903c 1456 243d 1d1a 0fbd
000001c0: 0cbb d6ba feaf b7bb 03cb ea3c 3900 81be
000001d0: 4253 0bbf 1554 b6bb 90a7 3a3f f704 283d
000001e0: 46be cdbd 73a3 593e 9fd3 59bb b2ee 613b
000001f0: 6583 c2bb 9921 283d ec29 6fbe 9301 633b
00000200: 3478 aa3d b3bd 9abd a667 313d 27e2 cdbc
00000210: 86ab c1bb 5636 b839 d9b5 17bd 46a8 b13a
00000220: 59b3 c43e a605 12bb f398 77bf 98fd aa3e
00000230: 8cd3 0cbe 1a95 8d3f 9997 b73a 1061 17bb
00000240: d26d c1bc 9438 4abd 5b95 763e 09f0 8bbb
00000250: 3b6c 85bd 1a71 2fbe 8395 993e 1df1 cb3e
00000260: 0911 02bc 81b2 1dba 9506 a1bb e1ec e4bc
00000270: 3c3f 093f 9a59 17bb 8c50 3ebe b2e3 5b3e
00000280: fe0a 2cbb f429 ed3e 399e ab3b 8e57 903a
00000290: 68a1 bf3d 0cab f7bd 1c3a 3b3f 1b19 da3b
000002a0: e6af 863e ff7a 3f3e 0251 fe3c 11b6 64bd
000002b0: 99bc ff3a db7c 05b7 4639 28be da1a 833e
000002c0: 4e0a 3bbe 9da4 99ba 4a68 193e 2455 703c
000002d0: a69d dfbd ae13 203f 09c2 133b f283 1ebb
000002e0: 05a3 5b3c 1137 0cbf 829e 58bd 744e 6e3b
000002f0: 6799 93bf 3246 273d 56d1 93be e114 873e
00000300: 1fd4 4d3b 7b56 89bb 607b 01bd 50a7 5bbf
00000310: 7238 e3bc 6634 47bb 1515 03bf b6f5 f03d
00000320: 194a 33bd db63 473e 5b39 a73b dc3b 9d3b
00000330: 506b 2f3c e5cc c03e 6b16 073e 9046 433a
00000340: 893b 6bbf 25a6 b5bd 400d d5be af67 003e
00000350: c103 bf3b a9be e3bb 1374 54bd 5755 5dbe
00000360: 2151 c4bd 06df 01ba 317a 07be 62fd 2abd
00000370: a79c 43be d026 b9be 6b8a 3fb9 4f65 df3b
00000380: d467 603d fd14 793d 89b7 4abf 0bda 7b3b
00000390: 9ca4 27bf dbe8 03bd 8f2e 52be 4380 ffbd
000003a0: c75a 023b f797 b63b 7cc7 a8bd 39b4 07be
000003b0: ea76 ebbe 68e2 4cbb 21bc e33e 0450 723e
000003c0: ede9 4f3e 26f7 9cbf 6549 993a 4e06 4cba
000003d0: 0718 03bc 4fcb 11bd ea81 da3d d5c1 833a
000003e0: 48c7 f93d d535 213c d007 2339 69e4 81bf
000003f0: 3ef1 b6b9 ce0d e2ba 5ec9 27ba 4d1a abbc
0.017559454 -0.019178212 -0.005552292 -0.0030856498 -0.006735828 -0.056103885 -0.10985132 0.0030912084
-0.17335728 0.01162039 -0.13352083 -1.0684952 0.00076987856 -0.0028315973 0.0031341203 -0.010830847
0.26989686 0.0026799848 -0.20853058 -0.71572846 0.2338111 -0.4477782 -5.4767657e-05 0.002685167
-0.006648485 0.01677198 0.0001463415 -0.0005651224 0.09936657 0.1081609 0.009615379 -0.16608447
0.0009859947 0.0020347969 0.006850618 0.0639756 -0.096655354 -0.0052949665 -0.036508515 0.7724484
-0.11875841 0.0068644905 0.0018693279 -0.006560851 0.0012245412 0.12441525 -1.9371117 0.00063179096
-0.198856 0.11951486 -0.23921889 -0.21006255 0.0038308136 -0.0013346507 0.031675763 0.022319408
0.030412378 -0.0012333355 0.02760271 -0.19229856 -0.1389132 0.24548778 0.003611581 0.008479717
-0.020734211 0.04048926 0.11091427 -0.011609086 0.04282805 0.5669785 0.6437971 0.56106687
-0.0048968187 0.0030772882 0.08424939 -0.14894189 0.14621551 0.0023518896 0.12863193 0.12571919
0.115723476 0.43025416 -0.001902968 -0.0036862676 0.023889467 -0.4756265 -0.239963 -0.005253092
-0.2889462 0.037826918 -0.034263723 -0.38686195 -0.0022397165 -0.0021080133 0.025414966 -0.03767514
-0.28354967 0.0007037319 0.2592035 -0.27848595 0.013487897 0.6790574 -6.538651e-05 -0.0012190742
0.026609292 -0.055652365 -1.2848535 0.004968961 -0.14063886 0.017604373 0.040121153 -0.034937013
-0.0016382649 -0.0056056967 0.028661257 -0.25195482 -0.54423916 -0.0055642226 0.7291193 0.04102036
-0.100460574 0.21253757 -0.0033237708 0.003447455 -0.0059360736 0.041047666 -0.23355836 0.003463839
0.08323708 -0.075557135 0.043311737 -0.025132252 -0.0059103398 0.00035135698 -0.037038658 0.0013554178
0.3841808 -0.0022281199 -0.96717757 0.33396602 -0.13752574 1.1061127 0.0014006972 -0.0023098625
-0.023611937 -0.049370363 0.24080412 -0.004270558 -0.06514784 -0.17132989 0.2999688 0.39832392
-0.007938632 -0.0006015674 -0.0049141147 -0.027944984 0.53612113 -0.0023094178 -0.18585414 0.21473578
-0.002625167 0.4632107 0.0052373675 0.0011012421 0.09356958 -0.120931715 0.7313554 0.006655825
0.26306075 0.18699263 0.031044487 -0.055837695 0.0019511163 -7.956488e-06 -0.16428098 0.25606424
-0.1826565 -0.0011722032 0.1498119 0.014668737 -0.10918741 0.6253003 0.0022546074 -0.0024187532
0.013405566 -0.54771525 -0.05288554 0.003636268 -1.153119 0.040838428 -0.28870648 0.26383117
0.0031406952 -0.0041912175 -0.0316118 -0.85802174 -0.027736876 -0.0030396222 -0.51204044 0.11765616
-0.043771837 0.19471686 0.005103273 0.0047983956 0.010706738 0.37656322 0.13192146 0.00074491743
-0.9188772 -0.0886958 -0.4161167 0.12539552 0.005829305 -0.0069502187 -0.05186851 -0.21614586
-0.095857866 -0.00049541926 -0.13230206 -0.04174555 -0.19102727 -0.36162424 -0.00018266744 0.006817497
0.05478652 0.06081103 -0.791863 0.0038429524 -0.6548555 -0.03220449 -0.20525573 -0.12475636
0.0019890533 0.005572315 -0.082411736 -0.13252343 -0.45989162 -0.0031262878 0.44479468 0.23663336
0.2030408 -1.2262924 0.0011694847 -0.0007782922 -0.008001334 -0.03559428 0.106693104 0.0010052273
0.12196213 0.009839495 0.00015547802 -1.014783 -0.00034893485 -0.0017246546 -0.00064005505 -0.020886565

decoder.linear.bias f4 [256]
00000000: 2e30 083e 221a 90be fbfb bc3f 814b d6be
00000010: 463a 763d 88b4 47be 7f45 3cbf 39e8 d83d
00000020: f0fa 933e f515 033d 14dc 653d b607 54be
00000030: c503 89be 32be 26bd a9d7 26be 2e85 f0be
00000040: d4f7 6dbf 4fec 2e3e 8952 73bf 8734 00bf
00000050: ba79 33bf 50e8 05be 9ab0 05bf 3017 85be
00000060: b9a6 b03f f9d5 d0be e5c0 88bd c13b 603e
00000070: 3938 a53d d72f 49bf c51d 9ebe 20a3 9cbe
00000080: e6a8 a4bf 043a c2be e2c6 ffbe 4cde 363c
00000090: 1c8d cf3e 1c51 b73e efe9 113f f947 b3be
000000a0: 6f56 75be 927b a73f 6bf7 e1be 23d9 eabe
000000b0: a321 e13d 982d b63d 1f4d 5fc0 b2a2 743d
000000c0: 9c4f b83e ae47 223f 1c44 5ebe 8345 ffbd
000000d0: 204a 48be b3c0 46bd 7a95 67be 4bb5 4bbe
000000e0: b584 2dbf 73d0 a7be 1b89 06bf 23d1 bdbd
000000f0: 5952 f23e 1a4d 0c3e da7a b8be ef1e 35bf
00000100: 5558 aebc 91f0 14c0 e226 a0be 05ed 72bf
00000110: 5170 9f3e 5145 ac3d a3b1 34bc 2c51 103d
00000120: 6d93 a03d 38a3 5f3e 5955 1e3f deba f93e
00000130: f23e 92bf 9d30 34be 1237 6dbe 0996 adbe
00000140: dc3d 40bf 39de 81bf 9ea0 5fbe a177 08bf
00000150: aa38 893e 21d2 bebe 88e0 53bd b0ff cdbe
00000160: 2dd4 c2be 1094 8e3d ec8a 28bf 19f5 e8be
00000170: 2429 0fbe c69b 503d ce73 40bf e0d6 1bbe
00000180: d49b 423e b905 70bf 0025 a3bd 5f9d 2c3e
00000190: ff24 e5be f1bb 44bf 5878 753f 304c db3f
000001a0: c9db babc e6bc 053c 5a68 dfbe ee13 debd
000001b0: e576 09be 8668 a73e a2ad 223f dd16 bbbe
000001c0: be9b 64be 5c89 2dbf f628 923e 9c1c 64bc
000001d0: 7283 01bd 96a7 a73d 1371 99bf 08e8 02be
000001e0: c1d5 c73e 097e 9abd 3172 1a3f ded9 2ebe
000001f0: 9fdf 0d3f 5b21 4b3f e86e babe d3a9 46be
00000200: 1126 77be a143 ec3d ffbc 65c0 87e0 56bf
00000210: 6df1 183f bf4e 24bf e580 b2bd 1c11 073e
00000220: fc03 efbd e1f5 0abe 6f52 f43c 8ba7 92bf
00000230: fe2c 0cbe c42e 993e ab75 653d 285c 983e
00000240: c58d 523d 0b05 5bbe 5960 fd3e aa77 11bf
00000250: c72f cbbd 3cbf f63c 9991 31bf 0516 41bf
00000260: 2d6b db3e 8a08 98bf 0f90 fe3d cf3d e53e
00000270: b6b1 7b3e 9d8b 97be 037d a03a c5b3 d3be
00000280: 8069 323e 1c91 863d 7e70 f8bf ad6f 763e
00000290: 5274 1bbc d20d 023f afc2 7f3f d8ff e93e
000002a0: 0c36 56bf 4a5c 2bbf 78ee 333f 8e99 b83f
000002b0: dd61 143e fd97 dcbf 2776 6cbe 5a38 debf
000002c0: b581 25bf 36b5 deb9 363e 8bbf 527b aa3e
000002d0: 3de7 293f 14c0 1ec0 248b 8f3e cdf7 80bf
000002e0: 471e 0cc0 c597 9abf d4b2 d1be bfb0 5abd
000002f0: 9dea 54bf 9afd 97be 6b3a 0b3f cea6 9dbd
00000300: 449a 35be 789c d9be 80f7 cebd af3e 53be
00000310: a53d 8cbc 37a7 d03e 1487 133a 3226 20be
00000320: cd7b b33f 83c4 683f aa80 0dbf 977c cabe
00000330: 9457 70bf f30b e13e 9122 b6be 4007 1b3f
00000340: 65ae 0abf 843c 8bbe 47ed f1bc 7138 983f
00000350: c17f a6bd 5ea8 56be cce8 79be e156 753e
00000360: fed5 77bd e3db d3be 8411 c0bc 7851 dabd
00000370: 1310 21bf 5e81 e6bd b554 f3bd fde8 4a3d
00000380: f027 d63e eae3 0dbf 2c53 50be c283 65be
00000390: 28f1 adbf 1c59 5c3e 2596 abbf 3de1 32be
000003a0: 584f d1bf 0df0 cabf 4dd9 89bf a4e9 2b3d
000003b0: 6af7 d43f ba5a 013f da11 963e a7cd 65be
000003c0: cda6 bb3e 7446 a3bf 155d 1a3f 2837 a2bc
000003d0: 6ca4 513f f703 7a3d 06ed d2bd e391 1dbe
000003e0: 908d 64bf a6cb b93a 5ec6 07be e94a 82bf
000003f0: b9a5 6abf 7197 ae3d 3ee7 cebe f8c3 ffbd
0.13299629 -0.28144938 1.4764398 -0.4185448 0.060114168 -0.19502461 -0.7354354 0.10591168
0.28902388 0.03200336 0.056118086 -0.20706066 -0.26760688 -0.040708728 -0.16293205 -0.46976608
-0.9295628 0.17082332 -0.95047814 -0.5008015 -0.70107615 -0.13076901 -0.522226 -0.25994253
1.380088 -0.40788248 -0.06677417 0.21897794 0.08067364 -0.7858862 -0.30882087 -0.30593204
-1.2864044 -0.37934887 -0.49956423 0.011161398 0.40537345 0.3580407 0.5699758 -0.35015848
-0.23958753 1.3084586 -0.44134077 -0.45868787 0.10992744 0.08895415 -3.489082 0.05972547
0.35998237 0.63390625 -0.21705669 -0.1246443 -0.19559526 -0.048523616 -0.22615615 -0.19893377
-0.6778062 -0.32776222 -0.52552956 -0.09268405 0.4732845 0.13701287 -0.36031228 -0.70750326
-0.021282354 -2.327183 -0.31279665 -0.94892913 0.31140378 0.084116586 -0.01102868 0.03523366
0.07840619 0.21839607 0.6184898 0.4877538 -1.1425459 -0.1759667 -0.23165539 -0.3390353
-0.7509439 -1.0145942 -0.21838614 -0.5330754 0.26801044 -0.3726969 -0.0517278 -0.40234137
-0.38052502 0.069618344 -0.6583698 -0.45499495 -0.13980538 0.050929807 -0.75176704 -0.15218687
0.19004756 -0.9375873 -0.079660416 0.16856907 -0.44754788 -0.76849276 0.95886755 1.7132626
-0.02280988 0.008162713 -0.436343 -0.10843645 -0.13424261 0.32696933 0.6354619 -0.3654088
-0.22325036 -0.6778772 0.28546876 -0.013922837 -0.031619497 0.08186261 -1.1987633 -0.12783825
0.3903027 -0.075435705 0.6033049 -0.17075297 0.55419344 0.7934777 -0.3641274 -0.1940072
-0.24135615 0.11536337 -3.5896604 -0.8393635 0.59743387 -0.64182657 -0.08715991 0.1319012
-0.11670682 -0.13570358 0.029824464 -1.145738 -0.13689038 0.29918492 0.05602042 0.2975781
0.051404733 -0.21388642 0.4948757 -0.5682322 -0.09921222 0.030120485 -0.6936279 -0.75424224
0.42855206 -1.1877606 0.12429821 0.4477372 0.2457951 -0.29598704 0.0012244288 -0.4134809
0.17423058 0.06570646 -1.940933 0.24066038 -0.009488182 0.5080234 0.9990644 0.45703006
-0.8367622 -0.66937697 0.7028575 1.4421861 0.14490457 -1.7233883 -0.23091947 -1.7360947
-0.6465104 -0.00042478152 -1.087836 0.3329721 0.66368467 -2.4804735 0.28035843 -1.0075623
-2.189348 -1.2077566 -0.40956748 -0.053391214 -0.8317049 -0.2968567 0.54386014 -0.07697831
-0.17734629 -0.4250219 -0.10105801 -0.2062938 -0.017119238 0.40752575 0.0005627733 -0.1563957
1.4022156 0.90924853 -0.5527445 -0.3954818 -0.93883634 0.4395443 -0.35573247 0.6055794
-0.54172355 -0.27194607 -0.029532088 1.1892225 -0.08129836 -0.20962664 -0.24405211 0.23958923
-0.060506813 -0.41378698 -0.023445852 -0.1066007 -0.6291515 -0.112551436 -0.11881391 0.0495386
0.41827345 -0.55425894 -0.20344228 -0.22413543 -1.358922 0.21518368 -1.3405195 -0.17468734
-1.6352339 -1.5854508 -1.076944 0.041970864 1.6638005 0.5052906 0.29310495 -0.22441731
0.36650696 -1.2755876 0.6029828 -0.019801691 0.8189151 0.061038937 -0.10299115 -0.15387683
-0.8927851 0.0014175072 -0.13259265 -1.0179111 -0.9165912 0.08524979 -0.404108 -0.1248855
